<?xml version="1.0" ?>
<net name="person-detection-asl-0001" version="10">
	<layers>
		<layer id="0" name="image" type="Parameter" version="opset1">
			<data element_type="f16" shape="1,3,320,320"/>
			<output>
				<port id="0" precision="FP16">
					<dim>1</dim>
					<dim>3</dim>
					<dim>320</dim>
					<dim>320</dim>
				</port>
			</output>
		</layer>
		<layer id="1" name="image/reverse_input_channels68133/Concat68152_const" type="Const" version="opset1">
			<data element_type="f16" offset="0" shape="1,3,1,1" size="6"/>
			<output>
				<port id="1" precision="FP16">
					<dim>1</dim>
					<dim>3</dim>
					<dim>1</dim>
					<dim>1</dim>
				</port>
			</output>
		</layer>
		<layer id="2" name="image/scale_value/Fused_Mul_" type="Multiply" version="opset1">
			<input>
				<port id="0">
					<dim>1</dim>
					<dim>3</dim>
					<dim>320</dim>
					<dim>320</dim>
				</port>
				<port id="1">
					<dim>1</dim>
					<dim>3</dim>
					<dim>1</dim>
					<dim>1</dim>
				</port>
			</input>
			<output>
				<port id="2" precision="FP16">
					<dim>1</dim>
					<dim>3</dim>
					<dim>320</dim>
					<dim>320</dim>
				</port>
			</output>
		</layer>
		<layer id="3" name="image/reverse_input_channels68135/Concat68160_const" type="Const" version="opset1">
			<data element_type="f16" offset="6" shape="1,3,1,1" size="6"/>
			<output>
				<port id="1" precision="FP16">
					<dim>1</dim>
					<dim>3</dim>
					<dim>1</dim>
					<dim>1</dim>
				</port>
			</output>
		</layer>
		<layer id="4" name="image/mean_value/Fused_Add_" type="Add" version="opset1">
			<input>
				<port id="0">
					<dim>1</dim>
					<dim>3</dim>
					<dim>320</dim>
					<dim>320</dim>
				</port>
				<port id="1">
					<dim>1</dim>
					<dim>3</dim>
					<dim>1</dim>
					<dim>1</dim>
				</port>
			</input>
			<output>
				<port id="2" precision="FP16">
					<dim>1</dim>
					<dim>3</dim>
					<dim>320</dim>
					<dim>320</dim>
				</port>
			</output>
		</layer>
		<layer id="5" name="image/reverse_input_channels/Concat68144_const" type="Const" version="opset1">
			<data element_type="f16" offset="12" shape="24,3,3,3" size="1296"/>
			<output>
				<port id="1" precision="FP16">
					<dim>24</dim>
					<dim>3</dim>
					<dim>3</dim>
					<dim>3</dim>
				</port>
			</output>
		</layer>
		<layer id="6" name="390" type="Convolution" version="opset1">
			<data dilations="1,1" output_padding="0,0" pads_begin="1,1" pads_end="1,1" strides="2,2"/>
			<input>
				<port id="0">
					<dim>1</dim>
					<dim>3</dim>
					<dim>320</dim>
					<dim>320</dim>
				</port>
				<port id="1">
					<dim>24</dim>
					<dim>3</dim>
					<dim>3</dim>
					<dim>3</dim>
				</port>
			</input>
			<output>
				<port id="2" precision="FP16">
					<dim>1</dim>
					<dim>24</dim>
					<dim>160</dim>
					<dim>160</dim>
				</port>
			</output>
		</layer>
		<layer id="7" name="data_add_334853349034844/EltwiseUnsqueeze35406_const" type="Const" version="opset1">
			<data element_type="f16" offset="1308" shape="1,24,1,1" size="48"/>
			<output>
				<port id="1" precision="FP16">
					<dim>1</dim>
					<dim>24</dim>
					<dim>1</dim>
					<dim>1</dim>
				</port>
			</output>
		</layer>
		<layer id="8" name="391/variance/Fused_Add_" type="Add" version="opset1">
			<input>
				<port id="0">
					<dim>1</dim>
					<dim>24</dim>
					<dim>160</dim>
					<dim>160</dim>
				</port>
				<port id="1">
					<dim>1</dim>
					<dim>24</dim>
					<dim>1</dim>
					<dim>1</dim>
				</port>
			</input>
			<output>
				<port id="2" precision="FP16">
					<dim>1</dim>
					<dim>24</dim>
					<dim>160</dim>
					<dim>160</dim>
				</port>
			</output>
		</layer>
		<layer id="9" name="392" type="ReLU" version="opset1">
			<input>
				<port id="0">
					<dim>1</dim>
					<dim>24</dim>
					<dim>160</dim>
					<dim>160</dim>
				</port>
			</input>
			<output>
				<port id="1" precision="FP16">
					<dim>1</dim>
					<dim>24</dim>
					<dim>160</dim>
					<dim>160</dim>
				</port>
			</output>
		</layer>
		<layer id="10" name="393" type="MaxPool" version="opset1">
			<data kernel="3,3" pads_begin="0,0" pads_end="0,0" rounding_type="ceil" strides="2,2"/>
			<input>
				<port id="0">
					<dim>1</dim>
					<dim>24</dim>
					<dim>160</dim>
					<dim>160</dim>
				</port>
			</input>
			<output>
				<port id="1" precision="FP16">
					<dim>1</dim>
					<dim>24</dim>
					<dim>80</dim>
					<dim>80</dim>
				</port>
			</output>
		</layer>
		<layer id="11" name="7185971862_const" type="Const" version="opset1">
			<data element_type="f16" offset="1356" shape="24,1,1,3,3" size="432"/>
			<output>
				<port id="1" precision="FP16">
					<dim>24</dim>
					<dim>1</dim>
					<dim>1</dim>
					<dim>3</dim>
					<dim>3</dim>
				</port>
			</output>
		</layer>
		<layer id="12" name="394" type="GroupConvolution" version="opset1">
			<data dilations="1,1" output_padding="0,0" pads_begin="1,1" pads_end="1,1" strides="2,2"/>
			<input>
				<port id="0">
					<dim>1</dim>
					<dim>24</dim>
					<dim>80</dim>
					<dim>80</dim>
				</port>
				<port id="1">
					<dim>24</dim>
					<dim>1</dim>
					<dim>1</dim>
					<dim>3</dim>
					<dim>3</dim>
				</port>
			</input>
			<output>
				<port id="2" precision="FP16">
					<dim>1</dim>
					<dim>24</dim>
					<dim>40</dim>
					<dim>40</dim>
				</port>
			</output>
		</layer>
		<layer id="13" name="data_add_335173352234852/EltwiseUnsqueeze35438_const" type="Const" version="opset1">
			<data element_type="f16" offset="1788" shape="1,24,1,1" size="48"/>
			<output>
				<port id="1" precision="FP16">
					<dim>1</dim>
					<dim>24</dim>
					<dim>1</dim>
					<dim>1</dim>
				</port>
			</output>
		</layer>
		<layer id="14" name="395/variance/Fused_Add_" type="Add" version="opset1">
			<input>
				<port id="0">
					<dim>1</dim>
					<dim>24</dim>
					<dim>40</dim>
					<dim>40</dim>
				</port>
				<port id="1">
					<dim>1</dim>
					<dim>24</dim>
					<dim>1</dim>
					<dim>1</dim>
				</port>
			</input>
			<output>
				<port id="2" precision="FP16">
					<dim>1</dim>
					<dim>24</dim>
					<dim>40</dim>
					<dim>40</dim>
				</port>
			</output>
		</layer>
		<layer id="15" name="397/mean/Fused_Mul_3690036902_const" type="Const" version="opset1">
			<data element_type="f16" offset="1836" shape="58,24,1,1" size="2784"/>
			<output>
				<port id="1" precision="FP16">
					<dim>58</dim>
					<dim>24</dim>
					<dim>1</dim>
					<dim>1</dim>
				</port>
			</output>
		</layer>
		<layer id="16" name="396" type="Convolution" version="opset1">
			<data dilations="1,1" output_padding="0,0" pads_begin="0,0" pads_end="0,0" strides="1,1"/>
			<input>
				<port id="0">
					<dim>1</dim>
					<dim>24</dim>
					<dim>40</dim>
					<dim>40</dim>
				</port>
				<port id="1">
					<dim>58</dim>
					<dim>24</dim>
					<dim>1</dim>
					<dim>1</dim>
				</port>
			</input>
			<output>
				<port id="2" precision="FP16">
					<dim>1</dim>
					<dim>58</dim>
					<dim>40</dim>
					<dim>40</dim>
				</port>
			</output>
		</layer>
		<layer id="17" name="data_add_335253353034854/EltwiseUnsqueeze35446_const" type="Const" version="opset1">
			<data element_type="f16" offset="4620" shape="1,58,1,1" size="116"/>
			<output>
				<port id="1" precision="FP16">
					<dim>1</dim>
					<dim>58</dim>
					<dim>1</dim>
					<dim>1</dim>
				</port>
			</output>
		</layer>
		<layer id="18" name="397/variance/Fused_Add_" type="Add" version="opset1">
			<input>
				<port id="0">
					<dim>1</dim>
					<dim>58</dim>
					<dim>40</dim>
					<dim>40</dim>
				</port>
				<port id="1">
					<dim>1</dim>
					<dim>58</dim>
					<dim>1</dim>
					<dim>1</dim>
				</port>
			</input>
			<output>
				<port id="2" precision="FP16">
					<dim>1</dim>
					<dim>58</dim>
					<dim>40</dim>
					<dim>40</dim>
				</port>
			</output>
		</layer>
		<layer id="19" name="398" type="ReLU" version="opset1">
			<input>
				<port id="0">
					<dim>1</dim>
					<dim>58</dim>
					<dim>40</dim>
					<dim>40</dim>
				</port>
			</input>
			<output>
				<port id="1" precision="FP16">
					<dim>1</dim>
					<dim>58</dim>
					<dim>40</dim>
					<dim>40</dim>
				</port>
			</output>
		</layer>
		<layer id="20" name="400/mean/Fused_Mul_3688436886_const" type="Const" version="opset1">
			<data element_type="f16" offset="4736" shape="58,24,1,1" size="2784"/>
			<output>
				<port id="1" precision="FP16">
					<dim>58</dim>
					<dim>24</dim>
					<dim>1</dim>
					<dim>1</dim>
				</port>
			</output>
		</layer>
		<layer id="21" name="399" type="Convolution" version="opset1">
			<data dilations="1,1" output_padding="0,0" pads_begin="0,0" pads_end="0,0" strides="1,1"/>
			<input>
				<port id="0">
					<dim>1</dim>
					<dim>24</dim>
					<dim>80</dim>
					<dim>80</dim>
				</port>
				<port id="1">
					<dim>58</dim>
					<dim>24</dim>
					<dim>1</dim>
					<dim>1</dim>
				</port>
			</input>
			<output>
				<port id="2" precision="FP16">
					<dim>1</dim>
					<dim>58</dim>
					<dim>80</dim>
					<dim>80</dim>
				</port>
			</output>
		</layer>
		<layer id="22" name="data_add_334933349834846/EltwiseUnsqueeze35414_const" type="Const" version="opset1">
			<data element_type="f16" offset="7520" shape="1,58,1,1" size="116"/>
			<output>
				<port id="1" precision="FP16">
					<dim>1</dim>
					<dim>58</dim>
					<dim>1</dim>
					<dim>1</dim>
				</port>
			</output>
		</layer>
		<layer id="23" name="400/variance/Fused_Add_" type="Add" version="opset1">
			<input>
				<port id="0">
					<dim>1</dim>
					<dim>58</dim>
					<dim>80</dim>
					<dim>80</dim>
				</port>
				<port id="1">
					<dim>1</dim>
					<dim>58</dim>
					<dim>1</dim>
					<dim>1</dim>
				</port>
			</input>
			<output>
				<port id="2" precision="FP16">
					<dim>1</dim>
					<dim>58</dim>
					<dim>80</dim>
					<dim>80</dim>
				</port>
			</output>
		</layer>
		<layer id="24" name="401" type="ReLU" version="opset1">
			<input>
				<port id="0">
					<dim>1</dim>
					<dim>58</dim>
					<dim>80</dim>
					<dim>80</dim>
				</port>
			</input>
			<output>
				<port id="1" precision="FP16">
					<dim>1</dim>
					<dim>58</dim>
					<dim>80</dim>
					<dim>80</dim>
				</port>
			</output>
		</layer>
		<layer id="25" name="7186771870_const" type="Const" version="opset1">
			<data element_type="f16" offset="7636" shape="58,1,1,3,3" size="1044"/>
			<output>
				<port id="1" precision="FP16">
					<dim>58</dim>
					<dim>1</dim>
					<dim>1</dim>
					<dim>3</dim>
					<dim>3</dim>
				</port>
			</output>
		</layer>
		<layer id="26" name="402" type="GroupConvolution" version="opset1">
			<data dilations="1,1" output_padding="0,0" pads_begin="1,1" pads_end="1,1" strides="2,2"/>
			<input>
				<port id="0">
					<dim>1</dim>
					<dim>58</dim>
					<dim>80</dim>
					<dim>80</dim>
				</port>
				<port id="1">
					<dim>58</dim>
					<dim>1</dim>
					<dim>1</dim>
					<dim>3</dim>
					<dim>3</dim>
				</port>
			</input>
			<output>
				<port id="2" precision="FP16">
					<dim>1</dim>
					<dim>58</dim>
					<dim>40</dim>
					<dim>40</dim>
				</port>
			</output>
		</layer>
		<layer id="27" name="data_add_335013350634848/EltwiseUnsqueeze35422_const" type="Const" version="opset1">
			<data element_type="f16" offset="8680" shape="1,58,1,1" size="116"/>
			<output>
				<port id="1" precision="FP16">
					<dim>1</dim>
					<dim>58</dim>
					<dim>1</dim>
					<dim>1</dim>
				</port>
			</output>
		</layer>
		<layer id="28" name="403/variance/Fused_Add_" type="Add" version="opset1">
			<input>
				<port id="0">
					<dim>1</dim>
					<dim>58</dim>
					<dim>40</dim>
					<dim>40</dim>
				</port>
				<port id="1">
					<dim>1</dim>
					<dim>58</dim>
					<dim>1</dim>
					<dim>1</dim>
				</port>
			</input>
			<output>
				<port id="2" precision="FP16">
					<dim>1</dim>
					<dim>58</dim>
					<dim>40</dim>
					<dim>40</dim>
				</port>
			</output>
		</layer>
		<layer id="29" name="405/mean/Fused_Mul_3689236894_const" type="Const" version="opset1">
			<data element_type="f16" offset="8796" shape="58,58,1,1" size="6728"/>
			<output>
				<port id="1" precision="FP16">
					<dim>58</dim>
					<dim>58</dim>
					<dim>1</dim>
					<dim>1</dim>
				</port>
			</output>
		</layer>
		<layer id="30" name="404" type="Convolution" version="opset1">
			<data dilations="1,1" output_padding="0,0" pads_begin="0,0" pads_end="0,0" strides="1,1"/>
			<input>
				<port id="0">
					<dim>1</dim>
					<dim>58</dim>
					<dim>40</dim>
					<dim>40</dim>
				</port>
				<port id="1">
					<dim>58</dim>
					<dim>58</dim>
					<dim>1</dim>
					<dim>1</dim>
				</port>
			</input>
			<output>
				<port id="2" precision="FP16">
					<dim>1</dim>
					<dim>58</dim>
					<dim>40</dim>
					<dim>40</dim>
				</port>
			</output>
		</layer>
		<layer id="31" name="data_add_335093351434850/EltwiseUnsqueeze35430_const" type="Const" version="opset1">
			<data element_type="f16" offset="15524" shape="1,58,1,1" size="116"/>
			<output>
				<port id="1" precision="FP16">
					<dim>1</dim>
					<dim>58</dim>
					<dim>1</dim>
					<dim>1</dim>
				</port>
			</output>
		</layer>
		<layer id="32" name="405/variance/Fused_Add_" type="Add" version="opset1">
			<input>
				<port id="0">
					<dim>1</dim>
					<dim>58</dim>
					<dim>40</dim>
					<dim>40</dim>
				</port>
				<port id="1">
					<dim>1</dim>
					<dim>58</dim>
					<dim>1</dim>
					<dim>1</dim>
				</port>
			</input>
			<output>
				<port id="2" precision="FP16">
					<dim>1</dim>
					<dim>58</dim>
					<dim>40</dim>
					<dim>40</dim>
				</port>
			</output>
		</layer>
		<layer id="33" name="406" type="ReLU" version="opset1">
			<input>
				<port id="0">
					<dim>1</dim>
					<dim>58</dim>
					<dim>40</dim>
					<dim>40</dim>
				</port>
			</input>
			<output>
				<port id="1" precision="FP16">
					<dim>1</dim>
					<dim>58</dim>
					<dim>40</dim>
					<dim>40</dim>
				</port>
			</output>
		</layer>
		<layer id="34" name="407" type="Concat" version="opset1">
			<data axis="1"/>
			<input>
				<port id="0">
					<dim>1</dim>
					<dim>58</dim>
					<dim>40</dim>
					<dim>40</dim>
				</port>
				<port id="1">
					<dim>1</dim>
					<dim>58</dim>
					<dim>40</dim>
					<dim>40</dim>
				</port>
			</input>
			<output>
				<port id="2" precision="FP16">
					<dim>1</dim>
					<dim>116</dim>
					<dim>40</dim>
					<dim>40</dim>
				</port>
			</output>
		</layer>
		<layer id="35" name="409" type="ShapeOf" version="opset3">
			<data output_type="i64"/>
			<input>
				<port id="0">
					<dim>1</dim>
					<dim>116</dim>
					<dim>40</dim>
					<dim>40</dim>
				</port>
			</input>
			<output>
				<port id="1" precision="I64">
					<dim>4</dim>
				</port>
			</output>
		</layer>
		<layer id="36" name="4102588/Cast_174432_const" type="Const" version="opset1">
			<data element_type="i32" offset="15640" shape="" size="4"/>
			<output>
				<port id="1" precision="I32"/>
			</output>
		</layer>
		<layer id="37" name="4102588/Cast_274434_const" type="Const" version="opset1">
			<data element_type="i64" offset="15644" shape="" size="8"/>
			<output>
				<port id="1" precision="I64"/>
			</output>
		</layer>
		<layer id="38" name="4102588" type="Gather" version="opset1">
			<input>
				<port id="0">
					<dim>4</dim>
				</port>
				<port id="1"/>
				<port id="2"/>
			</input>
			<output>
				<port id="3" precision="I64"/>
			</output>
		</layer>
		<layer id="39" name="423/Dims/Output_0/Data__const" type="Const" version="opset1">
			<data element_type="i64" offset="15644" shape="1" size="8"/>
			<output>
				<port id="1" precision="I64">
					<dim>1</dim>
				</port>
			</output>
		</layer>
		<layer id="40" name="423/Unsqueeze" type="Unsqueeze" version="opset1">
			<input>
				<port id="0"/>
				<port id="1">
					<dim>1</dim>
				</port>
			</input>
			<output>
				<port id="2" precision="I64">
					<dim>1</dim>
				</port>
			</output>
		</layer>
		<layer id="41" name="424/Unsqueeze/Output_0/Data__const" type="Const" version="opset1">
			<data element_type="i64" offset="15652" shape="1" size="8"/>
			<output>
				<port id="1" precision="I64">
					<dim>1</dim>
				</port>
			</output>
		</layer>
		<layer id="42" name="412" type="ShapeOf" version="opset3">
			<data output_type="i64"/>
			<input>
				<port id="0">
					<dim>1</dim>
					<dim>116</dim>
					<dim>40</dim>
					<dim>40</dim>
				</port>
			</input>
			<output>
				<port id="1" precision="I64">
					<dim>4</dim>
				</port>
			</output>
		</layer>
		<layer id="43" name="4132448/Cast_174520_const" type="Const" version="opset1">
			<data element_type="i32" offset="15660" shape="" size="4"/>
			<output>
				<port id="1" precision="I32"/>
			</output>
		</layer>
		<layer id="44" name="4132448/Cast_274522_const" type="Const" version="opset1">
			<data element_type="i64" offset="15644" shape="" size="8"/>
			<output>
				<port id="1" precision="I64"/>
			</output>
		</layer>
		<layer id="45" name="4132448" type="Gather" version="opset1">
			<input>
				<port id="0">
					<dim>4</dim>
				</port>
				<port id="1"/>
				<port id="2"/>
			</input>
			<output>
				<port id="3" precision="I64"/>
			</output>
		</layer>
		<layer id="46" name="420/Output_0/Data__const" type="Const" version="opset1">
			<data element_type="i64" offset="15652" shape="" size="8"/>
			<output>
				<port id="1" precision="I64"/>
			</output>
		</layer>
		<layer id="47" name="421" type="Divide" version="opset1">
			<input>
				<port id="0"/>
				<port id="1"/>
			</input>
			<output>
				<port id="2" precision="I64"/>
			</output>
		</layer>
		<layer id="48" name="425/Dims/Output_0/Data__const" type="Const" version="opset1">
			<data element_type="i64" offset="15644" shape="1" size="8"/>
			<output>
				<port id="1" precision="I64">
					<dim>1</dim>
				</port>
			</output>
		</layer>
		<layer id="49" name="425/Unsqueeze" type="Unsqueeze" version="opset1">
			<input>
				<port id="0"/>
				<port id="1">
					<dim>1</dim>
				</port>
			</input>
			<output>
				<port id="2" precision="I64">
					<dim>1</dim>
				</port>
			</output>
		</layer>
		<layer id="50" name="415" type="ShapeOf" version="opset3">
			<data output_type="i64"/>
			<input>
				<port id="0">
					<dim>1</dim>
					<dim>116</dim>
					<dim>40</dim>
					<dim>40</dim>
				</port>
			</input>
			<output>
				<port id="1" precision="I64">
					<dim>4</dim>
				</port>
			</output>
		</layer>
		<layer id="51" name="4162480/Cast_173738_const" type="Const" version="opset1">
			<data element_type="i32" offset="15664" shape="" size="4"/>
			<output>
				<port id="1" precision="I32"/>
			</output>
		</layer>
		<layer id="52" name="4162480/Cast_273740_const" type="Const" version="opset1">
			<data element_type="i64" offset="15644" shape="" size="8"/>
			<output>
				<port id="1" precision="I64"/>
			</output>
		</layer>
		<layer id="53" name="4162480" type="Gather" version="opset1">
			<input>
				<port id="0">
					<dim>4</dim>
				</port>
				<port id="1"/>
				<port id="2"/>
			</input>
			<output>
				<port id="3" precision="I64"/>
			</output>
		</layer>
		<layer id="54" name="426/Dims/Output_0/Data__const" type="Const" version="opset1">
			<data element_type="i64" offset="15644" shape="1" size="8"/>
			<output>
				<port id="1" precision="I64">
					<dim>1</dim>
				</port>
			</output>
		</layer>
		<layer id="55" name="426/Unsqueeze" type="Unsqueeze" version="opset1">
			<input>
				<port id="0"/>
				<port id="1">
					<dim>1</dim>
				</port>
			</input>
			<output>
				<port id="2" precision="I64">
					<dim>1</dim>
				</port>
			</output>
		</layer>
		<layer id="56" name="418" type="ShapeOf" version="opset3">
			<data output_type="i64"/>
			<input>
				<port id="0">
					<dim>1</dim>
					<dim>116</dim>
					<dim>40</dim>
					<dim>40</dim>
				</port>
			</input>
			<output>
				<port id="1" precision="I64">
					<dim>4</dim>
				</port>
			</output>
		</layer>
		<layer id="57" name="4192386/Cast_174354_const" type="Const" version="opset1">
			<data element_type="i32" offset="15668" shape="" size="4"/>
			<output>
				<port id="1" precision="I32"/>
			</output>
		</layer>
		<layer id="58" name="4192386/Cast_274356_const" type="Const" version="opset1">
			<data element_type="i64" offset="15644" shape="" size="8"/>
			<output>
				<port id="1" precision="I64"/>
			</output>
		</layer>
		<layer id="59" name="4192386" type="Gather" version="opset1">
			<input>
				<port id="0">
					<dim>4</dim>
				</port>
				<port id="1"/>
				<port id="2"/>
			</input>
			<output>
				<port id="3" precision="I64"/>
			</output>
		</layer>
		<layer id="60" name="427/Dims/Output_0/Data__const" type="Const" version="opset1">
			<data element_type="i64" offset="15644" shape="1" size="8"/>
			<output>
				<port id="1" precision="I64">
					<dim>1</dim>
				</port>
			</output>
		</layer>
		<layer id="61" name="427/Unsqueeze" type="Unsqueeze" version="opset1">
			<input>
				<port id="0"/>
				<port id="1">
					<dim>1</dim>
				</port>
			</input>
			<output>
				<port id="2" precision="I64">
					<dim>1</dim>
				</port>
			</output>
		</layer>
		<layer id="62" name="428" type="Concat" version="opset1">
			<data axis="0"/>
			<input>
				<port id="0">
					<dim>1</dim>
				</port>
				<port id="1">
					<dim>1</dim>
				</port>
				<port id="2">
					<dim>1</dim>
				</port>
				<port id="3">
					<dim>1</dim>
				</port>
				<port id="4">
					<dim>1</dim>
				</port>
			</input>
			<output>
				<port id="5" precision="I64">
					<dim>5</dim>
				</port>
			</output>
		</layer>
		<layer id="63" name="429" type="Reshape" version="opset1">
			<data special_zero="True"/>
			<input>
				<port id="0">
					<dim>1</dim>
					<dim>116</dim>
					<dim>40</dim>
					<dim>40</dim>
				</port>
				<port id="1">
					<dim>5</dim>
				</port>
			</input>
			<output>
				<port id="2" precision="FP16">
					<dim>1</dim>
					<dim>2</dim>
					<dim>58</dim>
					<dim>40</dim>
					<dim>40</dim>
				</port>
			</output>
		</layer>
		<layer id="64" name="430/Cast_174010_const" type="Const" version="opset1">
			<data element_type="i64" offset="15672" shape="5" size="40"/>
			<output>
				<port id="1" precision="I64">
					<dim>5</dim>
				</port>
			</output>
		</layer>
		<layer id="65" name="430" type="Transpose" version="opset1">
			<input>
				<port id="0">
					<dim>1</dim>
					<dim>2</dim>
					<dim>58</dim>
					<dim>40</dim>
					<dim>40</dim>
				</port>
				<port id="1">
					<dim>5</dim>
				</port>
			</input>
			<output>
				<port id="2" precision="FP16">
					<dim>1</dim>
					<dim>58</dim>
					<dim>2</dim>
					<dim>40</dim>
					<dim>40</dim>
				</port>
			</output>
		</layer>
		<layer id="66" name="431/Dims/Output_0/Data__const" type="Const" version="opset1">
			<data element_type="i64" offset="15644" shape="1" size="8"/>
			<output>
				<port id="1" precision="I64">
					<dim>1</dim>
				</port>
			</output>
		</layer>
		<layer id="67" name="431/Unsqueeze" type="Unsqueeze" version="opset1">
			<input>
				<port id="0"/>
				<port id="1">
					<dim>1</dim>
				</port>
			</input>
			<output>
				<port id="2" precision="I64">
					<dim>1</dim>
				</port>
			</output>
		</layer>
		<layer id="68" name="432/Dims/Output_0/Data__const" type="Const" version="opset1">
			<data element_type="i64" offset="15644" shape="1" size="8"/>
			<output>
				<port id="1" precision="I64">
					<dim>1</dim>
				</port>
			</output>
		</layer>
		<layer id="69" name="432/Unsqueeze" type="Unsqueeze" version="opset1">
			<input>
				<port id="0"/>
				<port id="1">
					<dim>1</dim>
				</port>
			</input>
			<output>
				<port id="2" precision="I64">
					<dim>1</dim>
				</port>
			</output>
		</layer>
		<layer id="70" name="433/Dims/Output_0/Data__const" type="Const" version="opset1">
			<data element_type="i64" offset="15644" shape="1" size="8"/>
			<output>
				<port id="1" precision="I64">
					<dim>1</dim>
				</port>
			</output>
		</layer>
		<layer id="71" name="433/Unsqueeze" type="Unsqueeze" version="opset1">
			<input>
				<port id="0"/>
				<port id="1">
					<dim>1</dim>
				</port>
			</input>
			<output>
				<port id="2" precision="I64">
					<dim>1</dim>
				</port>
			</output>
		</layer>
		<layer id="72" name="434/Dims/Output_0/Data__const" type="Const" version="opset1">
			<data element_type="i64" offset="15644" shape="1" size="8"/>
			<output>
				<port id="1" precision="I64">
					<dim>1</dim>
				</port>
			</output>
		</layer>
		<layer id="73" name="434/Unsqueeze" type="Unsqueeze" version="opset1">
			<input>
				<port id="0"/>
				<port id="1">
					<dim>1</dim>
				</port>
			</input>
			<output>
				<port id="2" precision="I64">
					<dim>1</dim>
				</port>
			</output>
		</layer>
		<layer id="74" name="435" type="Concat" version="opset1">
			<data axis="0"/>
			<input>
				<port id="0">
					<dim>1</dim>
				</port>
				<port id="1">
					<dim>1</dim>
				</port>
				<port id="2">
					<dim>1</dim>
				</port>
				<port id="3">
					<dim>1</dim>
				</port>
			</input>
			<output>
				<port id="4" precision="I64">
					<dim>4</dim>
				</port>
			</output>
		</layer>
		<layer id="75" name="436" type="Reshape" version="opset1">
			<data special_zero="True"/>
			<input>
				<port id="0">
					<dim>1</dim>
					<dim>58</dim>
					<dim>2</dim>
					<dim>40</dim>
					<dim>40</dim>
				</port>
				<port id="1">
					<dim>4</dim>
				</port>
			</input>
			<output>
				<port id="2" precision="FP16">
					<dim>1</dim>
					<dim>116</dim>
					<dim>40</dim>
					<dim>40</dim>
				</port>
			</output>
		</layer>
		<layer id="76" name="437/VariadicSplit_input_port_1/value/Output_0/Data__const" type="Const" version="opset1">
			<data element_type="i64" offset="15712" shape="" size="8"/>
			<output>
				<port id="1" precision="I64"/>
			</output>
		</layer>
		<layer id="77" name="437/VariadicSplit_input_port_2/value/Output_0/Data__const" type="Const" version="opset1">
			<data element_type="i64" offset="15720" shape="2" size="16"/>
			<output>
				<port id="1" precision="I64">
					<dim>2</dim>
				</port>
			</output>
		</layer>
		<layer id="78" name="437/VariadicSplit" type="VariadicSplit" version="opset1">
			<input>
				<port id="0">
					<dim>1</dim>
					<dim>116</dim>
					<dim>40</dim>
					<dim>40</dim>
				</port>
				<port id="1"/>
				<port id="2">
					<dim>2</dim>
				</port>
			</input>
			<output>
				<port id="3" precision="FP16">
					<dim>1</dim>
					<dim>58</dim>
					<dim>40</dim>
					<dim>40</dim>
				</port>
				<port id="4" precision="FP16">
					<dim>1</dim>
					<dim>58</dim>
					<dim>40</dim>
					<dim>40</dim>
				</port>
			</output>
		</layer>
		<layer id="79" name="440/mean/Fused_Mul_3690436906_const" type="Const" version="opset1">
			<data element_type="f16" offset="15736" shape="58,58,1,1" size="6728"/>
			<output>
				<port id="1" precision="FP16">
					<dim>58</dim>
					<dim>58</dim>
					<dim>1</dim>
					<dim>1</dim>
				</port>
			</output>
		</layer>
		<layer id="80" name="439" type="Convolution" version="opset1">
			<data dilations="1,1" output_padding="0,0" pads_begin="0,0" pads_end="0,0" strides="1,1"/>
			<input>
				<port id="0">
					<dim>1</dim>
					<dim>58</dim>
					<dim>40</dim>
					<dim>40</dim>
				</port>
				<port id="1">
					<dim>58</dim>
					<dim>58</dim>
					<dim>1</dim>
					<dim>1</dim>
				</port>
			</input>
			<output>
				<port id="2" precision="FP16">
					<dim>1</dim>
					<dim>58</dim>
					<dim>40</dim>
					<dim>40</dim>
				</port>
			</output>
		</layer>
		<layer id="81" name="data_add_335333353834856/EltwiseUnsqueeze35454_const" type="Const" version="opset1">
			<data element_type="f16" offset="22464" shape="1,58,1,1" size="116"/>
			<output>
				<port id="1" precision="FP16">
					<dim>1</dim>
					<dim>58</dim>
					<dim>1</dim>
					<dim>1</dim>
				</port>
			</output>
		</layer>
		<layer id="82" name="440/variance/Fused_Add_" type="Add" version="opset1">
			<input>
				<port id="0">
					<dim>1</dim>
					<dim>58</dim>
					<dim>40</dim>
					<dim>40</dim>
				</port>
				<port id="1">
					<dim>1</dim>
					<dim>58</dim>
					<dim>1</dim>
					<dim>1</dim>
				</port>
			</input>
			<output>
				<port id="2" precision="FP16">
					<dim>1</dim>
					<dim>58</dim>
					<dim>40</dim>
					<dim>40</dim>
				</port>
			</output>
		</layer>
		<layer id="83" name="441" type="ReLU" version="opset1">
			<input>
				<port id="0">
					<dim>1</dim>
					<dim>58</dim>
					<dim>40</dim>
					<dim>40</dim>
				</port>
			</input>
			<output>
				<port id="1" precision="FP16">
					<dim>1</dim>
					<dim>58</dim>
					<dim>40</dim>
					<dim>40</dim>
				</port>
			</output>
		</layer>
		<layer id="84" name="7183971842_const" type="Const" version="opset1">
			<data element_type="f16" offset="22580" shape="58,1,1,3,3" size="1044"/>
			<output>
				<port id="1" precision="FP16">
					<dim>58</dim>
					<dim>1</dim>
					<dim>1</dim>
					<dim>3</dim>
					<dim>3</dim>
				</port>
			</output>
		</layer>
		<layer id="85" name="442" type="GroupConvolution" version="opset1">
			<data dilations="1,1" output_padding="0,0" pads_begin="1,1" pads_end="1,1" strides="1,1"/>
			<input>
				<port id="0">
					<dim>1</dim>
					<dim>58</dim>
					<dim>40</dim>
					<dim>40</dim>
				</port>
				<port id="1">
					<dim>58</dim>
					<dim>1</dim>
					<dim>1</dim>
					<dim>3</dim>
					<dim>3</dim>
				</port>
			</input>
			<output>
				<port id="2" precision="FP16">
					<dim>1</dim>
					<dim>58</dim>
					<dim>40</dim>
					<dim>40</dim>
				</port>
			</output>
		</layer>
		<layer id="86" name="data_add_335413354634858/EltwiseUnsqueeze35462_const" type="Const" version="opset1">
			<data element_type="f16" offset="23624" shape="1,58,1,1" size="116"/>
			<output>
				<port id="1" precision="FP16">
					<dim>1</dim>
					<dim>58</dim>
					<dim>1</dim>
					<dim>1</dim>
				</port>
			</output>
		</layer>
		<layer id="87" name="443/variance/Fused_Add_" type="Add" version="opset1">
			<input>
				<port id="0">
					<dim>1</dim>
					<dim>58</dim>
					<dim>40</dim>
					<dim>40</dim>
				</port>
				<port id="1">
					<dim>1</dim>
					<dim>58</dim>
					<dim>1</dim>
					<dim>1</dim>
				</port>
			</input>
			<output>
				<port id="2" precision="FP16">
					<dim>1</dim>
					<dim>58</dim>
					<dim>40</dim>
					<dim>40</dim>
				</port>
			</output>
		</layer>
		<layer id="88" name="445/mean/Fused_Mul_3691236914_const" type="Const" version="opset1">
			<data element_type="f16" offset="23740" shape="58,58,1,1" size="6728"/>
			<output>
				<port id="1" precision="FP16">
					<dim>58</dim>
					<dim>58</dim>
					<dim>1</dim>
					<dim>1</dim>
				</port>
			</output>
		</layer>
		<layer id="89" name="444" type="Convolution" version="opset1">
			<data dilations="1,1" output_padding="0,0" pads_begin="0,0" pads_end="0,0" strides="1,1"/>
			<input>
				<port id="0">
					<dim>1</dim>
					<dim>58</dim>
					<dim>40</dim>
					<dim>40</dim>
				</port>
				<port id="1">
					<dim>58</dim>
					<dim>58</dim>
					<dim>1</dim>
					<dim>1</dim>
				</port>
			</input>
			<output>
				<port id="2" precision="FP16">
					<dim>1</dim>
					<dim>58</dim>
					<dim>40</dim>
					<dim>40</dim>
				</port>
			</output>
		</layer>
		<layer id="90" name="data_add_335493355434860/EltwiseUnsqueeze35470_const" type="Const" version="opset1">
			<data element_type="f16" offset="30468" shape="1,58,1,1" size="116"/>
			<output>
				<port id="1" precision="FP16">
					<dim>1</dim>
					<dim>58</dim>
					<dim>1</dim>
					<dim>1</dim>
				</port>
			</output>
		</layer>
		<layer id="91" name="445/variance/Fused_Add_" type="Add" version="opset1">
			<input>
				<port id="0">
					<dim>1</dim>
					<dim>58</dim>
					<dim>40</dim>
					<dim>40</dim>
				</port>
				<port id="1">
					<dim>1</dim>
					<dim>58</dim>
					<dim>1</dim>
					<dim>1</dim>
				</port>
			</input>
			<output>
				<port id="2" precision="FP16">
					<dim>1</dim>
					<dim>58</dim>
					<dim>40</dim>
					<dim>40</dim>
				</port>
			</output>
		</layer>
		<layer id="92" name="446" type="ReLU" version="opset1">
			<input>
				<port id="0">
					<dim>1</dim>
					<dim>58</dim>
					<dim>40</dim>
					<dim>40</dim>
				</port>
			</input>
			<output>
				<port id="1" precision="FP16">
					<dim>1</dim>
					<dim>58</dim>
					<dim>40</dim>
					<dim>40</dim>
				</port>
			</output>
		</layer>
		<layer id="93" name="447" type="Concat" version="opset1">
			<data axis="1"/>
			<input>
				<port id="0">
					<dim>1</dim>
					<dim>58</dim>
					<dim>40</dim>
					<dim>40</dim>
				</port>
				<port id="1">
					<dim>1</dim>
					<dim>58</dim>
					<dim>40</dim>
					<dim>40</dim>
				</port>
			</input>
			<output>
				<port id="2" precision="FP16">
					<dim>1</dim>
					<dim>116</dim>
					<dim>40</dim>
					<dim>40</dim>
				</port>
			</output>
		</layer>
		<layer id="94" name="449" type="ShapeOf" version="opset3">
			<data output_type="i64"/>
			<input>
				<port id="0">
					<dim>1</dim>
					<dim>116</dim>
					<dim>40</dim>
					<dim>40</dim>
				</port>
			</input>
			<output>
				<port id="1" precision="I64">
					<dim>4</dim>
				</port>
			</output>
		</layer>
		<layer id="95" name="4502342/Cast_174292_const" type="Const" version="opset1">
			<data element_type="i32" offset="15640" shape="" size="4"/>
			<output>
				<port id="1" precision="I32"/>
			</output>
		</layer>
		<layer id="96" name="4502342/Cast_274294_const" type="Const" version="opset1">
			<data element_type="i64" offset="15644" shape="" size="8"/>
			<output>
				<port id="1" precision="I64"/>
			</output>
		</layer>
		<layer id="97" name="4502342" type="Gather" version="opset1">
			<input>
				<port id="0">
					<dim>4</dim>
				</port>
				<port id="1"/>
				<port id="2"/>
			</input>
			<output>
				<port id="3" precision="I64"/>
			</output>
		</layer>
		<layer id="98" name="463/Dims/Output_0/Data__const" type="Const" version="opset1">
			<data element_type="i64" offset="15644" shape="1" size="8"/>
			<output>
				<port id="1" precision="I64">
					<dim>1</dim>
				</port>
			</output>
		</layer>
		<layer id="99" name="463/Unsqueeze" type="Unsqueeze" version="opset1">
			<input>
				<port id="0"/>
				<port id="1">
					<dim>1</dim>
				</port>
			</input>
			<output>
				<port id="2" precision="I64">
					<dim>1</dim>
				</port>
			</output>
		</layer>
		<layer id="100" name="464/Unsqueeze/Output_0/Data__const" type="Const" version="opset1">
			<data element_type="i64" offset="15652" shape="1" size="8"/>
			<output>
				<port id="1" precision="I64">
					<dim>1</dim>
				</port>
			</output>
		</layer>
		<layer id="101" name="452" type="ShapeOf" version="opset3">
			<data output_type="i64"/>
			<input>
				<port id="0">
					<dim>1</dim>
					<dim>116</dim>
					<dim>40</dim>
					<dim>40</dim>
				</port>
			</input>
			<output>
				<port id="1" precision="I64">
					<dim>4</dim>
				</port>
			</output>
		</layer>
		<layer id="102" name="4532356/Cast_173704_const" type="Const" version="opset1">
			<data element_type="i32" offset="15660" shape="" size="4"/>
			<output>
				<port id="1" precision="I32"/>
			</output>
		</layer>
		<layer id="103" name="4532356/Cast_273706_const" type="Const" version="opset1">
			<data element_type="i64" offset="15644" shape="" size="8"/>
			<output>
				<port id="1" precision="I64"/>
			</output>
		</layer>
		<layer id="104" name="4532356" type="Gather" version="opset1">
			<input>
				<port id="0">
					<dim>4</dim>
				</port>
				<port id="1"/>
				<port id="2"/>
			</input>
			<output>
				<port id="3" precision="I64"/>
			</output>
		</layer>
		<layer id="105" name="460/Output_0/Data__const" type="Const" version="opset1">
			<data element_type="i64" offset="15652" shape="" size="8"/>
			<output>
				<port id="1" precision="I64"/>
			</output>
		</layer>
		<layer id="106" name="461" type="Divide" version="opset1">
			<input>
				<port id="0"/>
				<port id="1"/>
			</input>
			<output>
				<port id="2" precision="I64"/>
			</output>
		</layer>
		<layer id="107" name="465/Dims/Output_0/Data__const" type="Const" version="opset1">
			<data element_type="i64" offset="15644" shape="1" size="8"/>
			<output>
				<port id="1" precision="I64">
					<dim>1</dim>
				</port>
			</output>
		</layer>
		<layer id="108" name="465/Unsqueeze" type="Unsqueeze" version="opset1">
			<input>
				<port id="0"/>
				<port id="1">
					<dim>1</dim>
				</port>
			</input>
			<output>
				<port id="2" precision="I64">
					<dim>1</dim>
				</port>
			</output>
		</layer>
		<layer id="109" name="455" type="ShapeOf" version="opset3">
			<data output_type="i64"/>
			<input>
				<port id="0">
					<dim>1</dim>
					<dim>116</dim>
					<dim>40</dim>
					<dim>40</dim>
				</port>
			</input>
			<output>
				<port id="1" precision="I64">
					<dim>4</dim>
				</port>
			</output>
		</layer>
		<layer id="110" name="4562612/Cast_174170_const" type="Const" version="opset1">
			<data element_type="i32" offset="15664" shape="" size="4"/>
			<output>
				<port id="1" precision="I32"/>
			</output>
		</layer>
		<layer id="111" name="4562612/Cast_274172_const" type="Const" version="opset1">
			<data element_type="i64" offset="15644" shape="" size="8"/>
			<output>
				<port id="1" precision="I64"/>
			</output>
		</layer>
		<layer id="112" name="4562612" type="Gather" version="opset1">
			<input>
				<port id="0">
					<dim>4</dim>
				</port>
				<port id="1"/>
				<port id="2"/>
			</input>
			<output>
				<port id="3" precision="I64"/>
			</output>
		</layer>
		<layer id="113" name="466/Dims/Output_0/Data__const" type="Const" version="opset1">
			<data element_type="i64" offset="15644" shape="1" size="8"/>
			<output>
				<port id="1" precision="I64">
					<dim>1</dim>
				</port>
			</output>
		</layer>
		<layer id="114" name="466/Unsqueeze" type="Unsqueeze" version="opset1">
			<input>
				<port id="0"/>
				<port id="1">
					<dim>1</dim>
				</port>
			</input>
			<output>
				<port id="2" precision="I64">
					<dim>1</dim>
				</port>
			</output>
		</layer>
		<layer id="115" name="458" type="ShapeOf" version="opset3">
			<data output_type="i64"/>
			<input>
				<port id="0">
					<dim>1</dim>
					<dim>116</dim>
					<dim>40</dim>
					<dim>40</dim>
				</port>
			</input>
			<output>
				<port id="1" precision="I64">
					<dim>4</dim>
				</port>
			</output>
		</layer>
		<layer id="116" name="4592324/Cast_174346_const" type="Const" version="opset1">
			<data element_type="i32" offset="15668" shape="" size="4"/>
			<output>
				<port id="1" precision="I32"/>
			</output>
		</layer>
		<layer id="117" name="4592324/Cast_274348_const" type="Const" version="opset1">
			<data element_type="i64" offset="15644" shape="" size="8"/>
			<output>
				<port id="1" precision="I64"/>
			</output>
		</layer>
		<layer id="118" name="4592324" type="Gather" version="opset1">
			<input>
				<port id="0">
					<dim>4</dim>
				</port>
				<port id="1"/>
				<port id="2"/>
			</input>
			<output>
				<port id="3" precision="I64"/>
			</output>
		</layer>
		<layer id="119" name="467/Dims/Output_0/Data__const" type="Const" version="opset1">
			<data element_type="i64" offset="15644" shape="1" size="8"/>
			<output>
				<port id="1" precision="I64">
					<dim>1</dim>
				</port>
			</output>
		</layer>
		<layer id="120" name="467/Unsqueeze" type="Unsqueeze" version="opset1">
			<input>
				<port id="0"/>
				<port id="1">
					<dim>1</dim>
				</port>
			</input>
			<output>
				<port id="2" precision="I64">
					<dim>1</dim>
				</port>
			</output>
		</layer>
		<layer id="121" name="468" type="Concat" version="opset1">
			<data axis="0"/>
			<input>
				<port id="0">
					<dim>1</dim>
				</port>
				<port id="1">
					<dim>1</dim>
				</port>
				<port id="2">
					<dim>1</dim>
				</port>
				<port id="3">
					<dim>1</dim>
				</port>
				<port id="4">
					<dim>1</dim>
				</port>
			</input>
			<output>
				<port id="5" precision="I64">
					<dim>5</dim>
				</port>
			</output>
		</layer>
		<layer id="122" name="469" type="Reshape" version="opset1">
			<data special_zero="True"/>
			<input>
				<port id="0">
					<dim>1</dim>
					<dim>116</dim>
					<dim>40</dim>
					<dim>40</dim>
				</port>
				<port id="1">
					<dim>5</dim>
				</port>
			</input>
			<output>
				<port id="2" precision="FP16">
					<dim>1</dim>
					<dim>2</dim>
					<dim>58</dim>
					<dim>40</dim>
					<dim>40</dim>
				</port>
			</output>
		</layer>
		<layer id="123" name="470/Cast_174200_const" type="Const" version="opset1">
			<data element_type="i64" offset="15672" shape="5" size="40"/>
			<output>
				<port id="1" precision="I64">
					<dim>5</dim>
				</port>
			</output>
		</layer>
		<layer id="124" name="470" type="Transpose" version="opset1">
			<input>
				<port id="0">
					<dim>1</dim>
					<dim>2</dim>
					<dim>58</dim>
					<dim>40</dim>
					<dim>40</dim>
				</port>
				<port id="1">
					<dim>5</dim>
				</port>
			</input>
			<output>
				<port id="2" precision="FP16">
					<dim>1</dim>
					<dim>58</dim>
					<dim>2</dim>
					<dim>40</dim>
					<dim>40</dim>
				</port>
			</output>
		</layer>
		<layer id="125" name="471/Dims/Output_0/Data__const" type="Const" version="opset1">
			<data element_type="i64" offset="15644" shape="1" size="8"/>
			<output>
				<port id="1" precision="I64">
					<dim>1</dim>
				</port>
			</output>
		</layer>
		<layer id="126" name="471/Unsqueeze" type="Unsqueeze" version="opset1">
			<input>
				<port id="0"/>
				<port id="1">
					<dim>1</dim>
				</port>
			</input>
			<output>
				<port id="2" precision="I64">
					<dim>1</dim>
				</port>
			</output>
		</layer>
		<layer id="127" name="472/Dims/Output_0/Data__const" type="Const" version="opset1">
			<data element_type="i64" offset="15644" shape="1" size="8"/>
			<output>
				<port id="1" precision="I64">
					<dim>1</dim>
				</port>
			</output>
		</layer>
		<layer id="128" name="472/Unsqueeze" type="Unsqueeze" version="opset1">
			<input>
				<port id="0"/>
				<port id="1">
					<dim>1</dim>
				</port>
			</input>
			<output>
				<port id="2" precision="I64">
					<dim>1</dim>
				</port>
			</output>
		</layer>
		<layer id="129" name="473/Dims/Output_0/Data__const" type="Const" version="opset1">
			<data element_type="i64" offset="15644" shape="1" size="8"/>
			<output>
				<port id="1" precision="I64">
					<dim>1</dim>
				</port>
			</output>
		</layer>
		<layer id="130" name="473/Unsqueeze" type="Unsqueeze" version="opset1">
			<input>
				<port id="0"/>
				<port id="1">
					<dim>1</dim>
				</port>
			</input>
			<output>
				<port id="2" precision="I64">
					<dim>1</dim>
				</port>
			</output>
		</layer>
		<layer id="131" name="474/Dims/Output_0/Data__const" type="Const" version="opset1">
			<data element_type="i64" offset="15644" shape="1" size="8"/>
			<output>
				<port id="1" precision="I64">
					<dim>1</dim>
				</port>
			</output>
		</layer>
		<layer id="132" name="474/Unsqueeze" type="Unsqueeze" version="opset1">
			<input>
				<port id="0"/>
				<port id="1">
					<dim>1</dim>
				</port>
			</input>
			<output>
				<port id="2" precision="I64">
					<dim>1</dim>
				</port>
			</output>
		</layer>
		<layer id="133" name="475" type="Concat" version="opset1">
			<data axis="0"/>
			<input>
				<port id="0">
					<dim>1</dim>
				</port>
				<port id="1">
					<dim>1</dim>
				</port>
				<port id="2">
					<dim>1</dim>
				</port>
				<port id="3">
					<dim>1</dim>
				</port>
			</input>
			<output>
				<port id="4" precision="I64">
					<dim>4</dim>
				</port>
			</output>
		</layer>
		<layer id="134" name="476" type="Reshape" version="opset1">
			<data special_zero="True"/>
			<input>
				<port id="0">
					<dim>1</dim>
					<dim>58</dim>
					<dim>2</dim>
					<dim>40</dim>
					<dim>40</dim>
				</port>
				<port id="1">
					<dim>4</dim>
				</port>
			</input>
			<output>
				<port id="2" precision="FP16">
					<dim>1</dim>
					<dim>116</dim>
					<dim>40</dim>
					<dim>40</dim>
				</port>
			</output>
		</layer>
		<layer id="135" name="477/VariadicSplit_input_port_1/value/Output_0/Data__const" type="Const" version="opset1">
			<data element_type="i64" offset="15712" shape="" size="8"/>
			<output>
				<port id="1" precision="I64"/>
			</output>
		</layer>
		<layer id="136" name="477/VariadicSplit_input_port_2/value/Output_0/Data__const" type="Const" version="opset1">
			<data element_type="i64" offset="15720" shape="2" size="16"/>
			<output>
				<port id="1" precision="I64">
					<dim>2</dim>
				</port>
			</output>
		</layer>
		<layer id="137" name="477/VariadicSplit" type="VariadicSplit" version="opset1">
			<input>
				<port id="0">
					<dim>1</dim>
					<dim>116</dim>
					<dim>40</dim>
					<dim>40</dim>
				</port>
				<port id="1"/>
				<port id="2">
					<dim>2</dim>
				</port>
			</input>
			<output>
				<port id="3" precision="FP16">
					<dim>1</dim>
					<dim>58</dim>
					<dim>40</dim>
					<dim>40</dim>
				</port>
				<port id="4" precision="FP16">
					<dim>1</dim>
					<dim>58</dim>
					<dim>40</dim>
					<dim>40</dim>
				</port>
			</output>
		</layer>
		<layer id="138" name="480/mean/Fused_Mul_3691636918_const" type="Const" version="opset1">
			<data element_type="f16" offset="30584" shape="58,58,1,1" size="6728"/>
			<output>
				<port id="1" precision="FP16">
					<dim>58</dim>
					<dim>58</dim>
					<dim>1</dim>
					<dim>1</dim>
				</port>
			</output>
		</layer>
		<layer id="139" name="479" type="Convolution" version="opset1">
			<data dilations="1,1" output_padding="0,0" pads_begin="0,0" pads_end="0,0" strides="1,1"/>
			<input>
				<port id="0">
					<dim>1</dim>
					<dim>58</dim>
					<dim>40</dim>
					<dim>40</dim>
				</port>
				<port id="1">
					<dim>58</dim>
					<dim>58</dim>
					<dim>1</dim>
					<dim>1</dim>
				</port>
			</input>
			<output>
				<port id="2" precision="FP16">
					<dim>1</dim>
					<dim>58</dim>
					<dim>40</dim>
					<dim>40</dim>
				</port>
			</output>
		</layer>
		<layer id="140" name="data_add_335573356234862/EltwiseUnsqueeze35478_const" type="Const" version="opset1">
			<data element_type="f16" offset="37312" shape="1,58,1,1" size="116"/>
			<output>
				<port id="1" precision="FP16">
					<dim>1</dim>
					<dim>58</dim>
					<dim>1</dim>
					<dim>1</dim>
				</port>
			</output>
		</layer>
		<layer id="141" name="480/variance/Fused_Add_" type="Add" version="opset1">
			<input>
				<port id="0">
					<dim>1</dim>
					<dim>58</dim>
					<dim>40</dim>
					<dim>40</dim>
				</port>
				<port id="1">
					<dim>1</dim>
					<dim>58</dim>
					<dim>1</dim>
					<dim>1</dim>
				</port>
			</input>
			<output>
				<port id="2" precision="FP16">
					<dim>1</dim>
					<dim>58</dim>
					<dim>40</dim>
					<dim>40</dim>
				</port>
			</output>
		</layer>
		<layer id="142" name="481" type="ReLU" version="opset1">
			<input>
				<port id="0">
					<dim>1</dim>
					<dim>58</dim>
					<dim>40</dim>
					<dim>40</dim>
				</port>
			</input>
			<output>
				<port id="1" precision="FP16">
					<dim>1</dim>
					<dim>58</dim>
					<dim>40</dim>
					<dim>40</dim>
				</port>
			</output>
		</layer>
		<layer id="143" name="7183171834_const" type="Const" version="opset1">
			<data element_type="f16" offset="37428" shape="58,1,1,3,3" size="1044"/>
			<output>
				<port id="1" precision="FP16">
					<dim>58</dim>
					<dim>1</dim>
					<dim>1</dim>
					<dim>3</dim>
					<dim>3</dim>
				</port>
			</output>
		</layer>
		<layer id="144" name="482" type="GroupConvolution" version="opset1">
			<data dilations="1,1" output_padding="0,0" pads_begin="1,1" pads_end="1,1" strides="1,1"/>
			<input>
				<port id="0">
					<dim>1</dim>
					<dim>58</dim>
					<dim>40</dim>
					<dim>40</dim>
				</port>
				<port id="1">
					<dim>58</dim>
					<dim>1</dim>
					<dim>1</dim>
					<dim>3</dim>
					<dim>3</dim>
				</port>
			</input>
			<output>
				<port id="2" precision="FP16">
					<dim>1</dim>
					<dim>58</dim>
					<dim>40</dim>
					<dim>40</dim>
				</port>
			</output>
		</layer>
		<layer id="145" name="data_add_335653357034864/EltwiseUnsqueeze35486_const" type="Const" version="opset1">
			<data element_type="f16" offset="38472" shape="1,58,1,1" size="116"/>
			<output>
				<port id="1" precision="FP16">
					<dim>1</dim>
					<dim>58</dim>
					<dim>1</dim>
					<dim>1</dim>
				</port>
			</output>
		</layer>
		<layer id="146" name="483/variance/Fused_Add_" type="Add" version="opset1">
			<input>
				<port id="0">
					<dim>1</dim>
					<dim>58</dim>
					<dim>40</dim>
					<dim>40</dim>
				</port>
				<port id="1">
					<dim>1</dim>
					<dim>58</dim>
					<dim>1</dim>
					<dim>1</dim>
				</port>
			</input>
			<output>
				<port id="2" precision="FP16">
					<dim>1</dim>
					<dim>58</dim>
					<dim>40</dim>
					<dim>40</dim>
				</port>
			</output>
		</layer>
		<layer id="147" name="485/mean/Fused_Mul_3692436926_const" type="Const" version="opset1">
			<data element_type="f16" offset="38588" shape="58,58,1,1" size="6728"/>
			<output>
				<port id="1" precision="FP16">
					<dim>58</dim>
					<dim>58</dim>
					<dim>1</dim>
					<dim>1</dim>
				</port>
			</output>
		</layer>
		<layer id="148" name="484" type="Convolution" version="opset1">
			<data dilations="1,1" output_padding="0,0" pads_begin="0,0" pads_end="0,0" strides="1,1"/>
			<input>
				<port id="0">
					<dim>1</dim>
					<dim>58</dim>
					<dim>40</dim>
					<dim>40</dim>
				</port>
				<port id="1">
					<dim>58</dim>
					<dim>58</dim>
					<dim>1</dim>
					<dim>1</dim>
				</port>
			</input>
			<output>
				<port id="2" precision="FP16">
					<dim>1</dim>
					<dim>58</dim>
					<dim>40</dim>
					<dim>40</dim>
				</port>
			</output>
		</layer>
		<layer id="149" name="data_add_335733357834866/EltwiseUnsqueeze35494_const" type="Const" version="opset1">
			<data element_type="f16" offset="45316" shape="1,58,1,1" size="116"/>
			<output>
				<port id="1" precision="FP16">
					<dim>1</dim>
					<dim>58</dim>
					<dim>1</dim>
					<dim>1</dim>
				</port>
			</output>
		</layer>
		<layer id="150" name="485/variance/Fused_Add_" type="Add" version="opset1">
			<input>
				<port id="0">
					<dim>1</dim>
					<dim>58</dim>
					<dim>40</dim>
					<dim>40</dim>
				</port>
				<port id="1">
					<dim>1</dim>
					<dim>58</dim>
					<dim>1</dim>
					<dim>1</dim>
				</port>
			</input>
			<output>
				<port id="2" precision="FP16">
					<dim>1</dim>
					<dim>58</dim>
					<dim>40</dim>
					<dim>40</dim>
				</port>
			</output>
		</layer>
		<layer id="151" name="486" type="ReLU" version="opset1">
			<input>
				<port id="0">
					<dim>1</dim>
					<dim>58</dim>
					<dim>40</dim>
					<dim>40</dim>
				</port>
			</input>
			<output>
				<port id="1" precision="FP16">
					<dim>1</dim>
					<dim>58</dim>
					<dim>40</dim>
					<dim>40</dim>
				</port>
			</output>
		</layer>
		<layer id="152" name="487" type="Concat" version="opset1">
			<data axis="1"/>
			<input>
				<port id="0">
					<dim>1</dim>
					<dim>58</dim>
					<dim>40</dim>
					<dim>40</dim>
				</port>
				<port id="1">
					<dim>1</dim>
					<dim>58</dim>
					<dim>40</dim>
					<dim>40</dim>
				</port>
			</input>
			<output>
				<port id="2" precision="FP16">
					<dim>1</dim>
					<dim>116</dim>
					<dim>40</dim>
					<dim>40</dim>
				</port>
			</output>
		</layer>
		<layer id="153" name="489" type="ShapeOf" version="opset3">
			<data output_type="i64"/>
			<input>
				<port id="0">
					<dim>1</dim>
					<dim>116</dim>
					<dim>40</dim>
					<dim>40</dim>
				</port>
			</input>
			<output>
				<port id="1" precision="I64">
					<dim>4</dim>
				</port>
			</output>
		</layer>
		<layer id="154" name="4902532/Cast_173896_const" type="Const" version="opset1">
			<data element_type="i32" offset="15640" shape="" size="4"/>
			<output>
				<port id="1" precision="I32"/>
			</output>
		</layer>
		<layer id="155" name="4902532/Cast_273898_const" type="Const" version="opset1">
			<data element_type="i64" offset="15644" shape="" size="8"/>
			<output>
				<port id="1" precision="I64"/>
			</output>
		</layer>
		<layer id="156" name="4902532" type="Gather" version="opset1">
			<input>
				<port id="0">
					<dim>4</dim>
				</port>
				<port id="1"/>
				<port id="2"/>
			</input>
			<output>
				<port id="3" precision="I64"/>
			</output>
		</layer>
		<layer id="157" name="503/Dims/Output_0/Data__const" type="Const" version="opset1">
			<data element_type="i64" offset="15644" shape="1" size="8"/>
			<output>
				<port id="1" precision="I64">
					<dim>1</dim>
				</port>
			</output>
		</layer>
		<layer id="158" name="503/Unsqueeze" type="Unsqueeze" version="opset1">
			<input>
				<port id="0"/>
				<port id="1">
					<dim>1</dim>
				</port>
			</input>
			<output>
				<port id="2" precision="I64">
					<dim>1</dim>
				</port>
			</output>
		</layer>
		<layer id="159" name="504/Unsqueeze/Output_0/Data__const" type="Const" version="opset1">
			<data element_type="i64" offset="15652" shape="1" size="8"/>
			<output>
				<port id="1" precision="I64">
					<dim>1</dim>
				</port>
			</output>
		</layer>
		<layer id="160" name="492" type="ShapeOf" version="opset3">
			<data output_type="i64"/>
			<input>
				<port id="0">
					<dim>1</dim>
					<dim>116</dim>
					<dim>40</dim>
					<dim>40</dim>
				</port>
			</input>
			<output>
				<port id="1" precision="I64">
					<dim>4</dim>
				</port>
			</output>
		</layer>
		<layer id="161" name="4932424/Cast_174114_const" type="Const" version="opset1">
			<data element_type="i32" offset="15660" shape="" size="4"/>
			<output>
				<port id="1" precision="I32"/>
			</output>
		</layer>
		<layer id="162" name="4932424/Cast_274116_const" type="Const" version="opset1">
			<data element_type="i64" offset="15644" shape="" size="8"/>
			<output>
				<port id="1" precision="I64"/>
			</output>
		</layer>
		<layer id="163" name="4932424" type="Gather" version="opset1">
			<input>
				<port id="0">
					<dim>4</dim>
				</port>
				<port id="1"/>
				<port id="2"/>
			</input>
			<output>
				<port id="3" precision="I64"/>
			</output>
		</layer>
		<layer id="164" name="500/Output_0/Data__const" type="Const" version="opset1">
			<data element_type="i64" offset="15652" shape="" size="8"/>
			<output>
				<port id="1" precision="I64"/>
			</output>
		</layer>
		<layer id="165" name="501" type="Divide" version="opset1">
			<input>
				<port id="0"/>
				<port id="1"/>
			</input>
			<output>
				<port id="2" precision="I64"/>
			</output>
		</layer>
		<layer id="166" name="505/Dims/Output_0/Data__const" type="Const" version="opset1">
			<data element_type="i64" offset="15644" shape="1" size="8"/>
			<output>
				<port id="1" precision="I64">
					<dim>1</dim>
				</port>
			</output>
		</layer>
		<layer id="167" name="505/Unsqueeze" type="Unsqueeze" version="opset1">
			<input>
				<port id="0"/>
				<port id="1">
					<dim>1</dim>
				</port>
			</input>
			<output>
				<port id="2" precision="I64">
					<dim>1</dim>
				</port>
			</output>
		</layer>
		<layer id="168" name="495" type="ShapeOf" version="opset3">
			<data output_type="i64"/>
			<input>
				<port id="0">
					<dim>1</dim>
					<dim>116</dim>
					<dim>40</dim>
					<dim>40</dim>
				</port>
			</input>
			<output>
				<port id="1" precision="I64">
					<dim>4</dim>
				</port>
			</output>
		</layer>
		<layer id="169" name="4962584/Cast_174236_const" type="Const" version="opset1">
			<data element_type="i32" offset="15664" shape="" size="4"/>
			<output>
				<port id="1" precision="I32"/>
			</output>
		</layer>
		<layer id="170" name="4962584/Cast_274238_const" type="Const" version="opset1">
			<data element_type="i64" offset="15644" shape="" size="8"/>
			<output>
				<port id="1" precision="I64"/>
			</output>
		</layer>
		<layer id="171" name="4962584" type="Gather" version="opset1">
			<input>
				<port id="0">
					<dim>4</dim>
				</port>
				<port id="1"/>
				<port id="2"/>
			</input>
			<output>
				<port id="3" precision="I64"/>
			</output>
		</layer>
		<layer id="172" name="506/Dims/Output_0/Data__const" type="Const" version="opset1">
			<data element_type="i64" offset="15644" shape="1" size="8"/>
			<output>
				<port id="1" precision="I64">
					<dim>1</dim>
				</port>
			</output>
		</layer>
		<layer id="173" name="506/Unsqueeze" type="Unsqueeze" version="opset1">
			<input>
				<port id="0"/>
				<port id="1">
					<dim>1</dim>
				</port>
			</input>
			<output>
				<port id="2" precision="I64">
					<dim>1</dim>
				</port>
			</output>
		</layer>
		<layer id="174" name="498" type="ShapeOf" version="opset3">
			<data output_type="i64"/>
			<input>
				<port id="0">
					<dim>1</dim>
					<dim>116</dim>
					<dim>40</dim>
					<dim>40</dim>
				</port>
			</input>
			<output>
				<port id="1" precision="I64">
					<dim>4</dim>
				</port>
			</output>
		</layer>
		<layer id="175" name="4992372/Cast_173838_const" type="Const" version="opset1">
			<data element_type="i32" offset="15668" shape="" size="4"/>
			<output>
				<port id="1" precision="I32"/>
			</output>
		</layer>
		<layer id="176" name="4992372/Cast_273840_const" type="Const" version="opset1">
			<data element_type="i64" offset="15644" shape="" size="8"/>
			<output>
				<port id="1" precision="I64"/>
			</output>
		</layer>
		<layer id="177" name="4992372" type="Gather" version="opset1">
			<input>
				<port id="0">
					<dim>4</dim>
				</port>
				<port id="1"/>
				<port id="2"/>
			</input>
			<output>
				<port id="3" precision="I64"/>
			</output>
		</layer>
		<layer id="178" name="507/Dims/Output_0/Data__const" type="Const" version="opset1">
			<data element_type="i64" offset="15644" shape="1" size="8"/>
			<output>
				<port id="1" precision="I64">
					<dim>1</dim>
				</port>
			</output>
		</layer>
		<layer id="179" name="507/Unsqueeze" type="Unsqueeze" version="opset1">
			<input>
				<port id="0"/>
				<port id="1">
					<dim>1</dim>
				</port>
			</input>
			<output>
				<port id="2" precision="I64">
					<dim>1</dim>
				</port>
			</output>
		</layer>
		<layer id="180" name="508" type="Concat" version="opset1">
			<data axis="0"/>
			<input>
				<port id="0">
					<dim>1</dim>
				</port>
				<port id="1">
					<dim>1</dim>
				</port>
				<port id="2">
					<dim>1</dim>
				</port>
				<port id="3">
					<dim>1</dim>
				</port>
				<port id="4">
					<dim>1</dim>
				</port>
			</input>
			<output>
				<port id="5" precision="I64">
					<dim>5</dim>
				</port>
			</output>
		</layer>
		<layer id="181" name="509" type="Reshape" version="opset1">
			<data special_zero="True"/>
			<input>
				<port id="0">
					<dim>1</dim>
					<dim>116</dim>
					<dim>40</dim>
					<dim>40</dim>
				</port>
				<port id="1">
					<dim>5</dim>
				</port>
			</input>
			<output>
				<port id="2" precision="FP16">
					<dim>1</dim>
					<dim>2</dim>
					<dim>58</dim>
					<dim>40</dim>
					<dim>40</dim>
				</port>
			</output>
		</layer>
		<layer id="182" name="510/Cast_173944_const" type="Const" version="opset1">
			<data element_type="i64" offset="15672" shape="5" size="40"/>
			<output>
				<port id="1" precision="I64">
					<dim>5</dim>
				</port>
			</output>
		</layer>
		<layer id="183" name="510" type="Transpose" version="opset1">
			<input>
				<port id="0">
					<dim>1</dim>
					<dim>2</dim>
					<dim>58</dim>
					<dim>40</dim>
					<dim>40</dim>
				</port>
				<port id="1">
					<dim>5</dim>
				</port>
			</input>
			<output>
				<port id="2" precision="FP16">
					<dim>1</dim>
					<dim>58</dim>
					<dim>2</dim>
					<dim>40</dim>
					<dim>40</dim>
				</port>
			</output>
		</layer>
		<layer id="184" name="511/Dims/Output_0/Data__const" type="Const" version="opset1">
			<data element_type="i64" offset="15644" shape="1" size="8"/>
			<output>
				<port id="1" precision="I64">
					<dim>1</dim>
				</port>
			</output>
		</layer>
		<layer id="185" name="511/Unsqueeze" type="Unsqueeze" version="opset1">
			<input>
				<port id="0"/>
				<port id="1">
					<dim>1</dim>
				</port>
			</input>
			<output>
				<port id="2" precision="I64">
					<dim>1</dim>
				</port>
			</output>
		</layer>
		<layer id="186" name="512/Dims/Output_0/Data__const" type="Const" version="opset1">
			<data element_type="i64" offset="15644" shape="1" size="8"/>
			<output>
				<port id="1" precision="I64">
					<dim>1</dim>
				</port>
			</output>
		</layer>
		<layer id="187" name="512/Unsqueeze" type="Unsqueeze" version="opset1">
			<input>
				<port id="0"/>
				<port id="1">
					<dim>1</dim>
				</port>
			</input>
			<output>
				<port id="2" precision="I64">
					<dim>1</dim>
				</port>
			</output>
		</layer>
		<layer id="188" name="513/Dims/Output_0/Data__const" type="Const" version="opset1">
			<data element_type="i64" offset="15644" shape="1" size="8"/>
			<output>
				<port id="1" precision="I64">
					<dim>1</dim>
				</port>
			</output>
		</layer>
		<layer id="189" name="513/Unsqueeze" type="Unsqueeze" version="opset1">
			<input>
				<port id="0"/>
				<port id="1">
					<dim>1</dim>
				</port>
			</input>
			<output>
				<port id="2" precision="I64">
					<dim>1</dim>
				</port>
			</output>
		</layer>
		<layer id="190" name="514/Dims/Output_0/Data__const" type="Const" version="opset1">
			<data element_type="i64" offset="15644" shape="1" size="8"/>
			<output>
				<port id="1" precision="I64">
					<dim>1</dim>
				</port>
			</output>
		</layer>
		<layer id="191" name="514/Unsqueeze" type="Unsqueeze" version="opset1">
			<input>
				<port id="0"/>
				<port id="1">
					<dim>1</dim>
				</port>
			</input>
			<output>
				<port id="2" precision="I64">
					<dim>1</dim>
				</port>
			</output>
		</layer>
		<layer id="192" name="515" type="Concat" version="opset1">
			<data axis="0"/>
			<input>
				<port id="0">
					<dim>1</dim>
				</port>
				<port id="1">
					<dim>1</dim>
				</port>
				<port id="2">
					<dim>1</dim>
				</port>
				<port id="3">
					<dim>1</dim>
				</port>
			</input>
			<output>
				<port id="4" precision="I64">
					<dim>4</dim>
				</port>
			</output>
		</layer>
		<layer id="193" name="516" type="Reshape" version="opset1">
			<data special_zero="True"/>
			<input>
				<port id="0">
					<dim>1</dim>
					<dim>58</dim>
					<dim>2</dim>
					<dim>40</dim>
					<dim>40</dim>
				</port>
				<port id="1">
					<dim>4</dim>
				</port>
			</input>
			<output>
				<port id="2" precision="FP16">
					<dim>1</dim>
					<dim>116</dim>
					<dim>40</dim>
					<dim>40</dim>
				</port>
			</output>
		</layer>
		<layer id="194" name="517/VariadicSplit_input_port_1/value/Output_0/Data__const" type="Const" version="opset1">
			<data element_type="i64" offset="15712" shape="" size="8"/>
			<output>
				<port id="1" precision="I64"/>
			</output>
		</layer>
		<layer id="195" name="517/VariadicSplit_input_port_2/value/Output_0/Data__const" type="Const" version="opset1">
			<data element_type="i64" offset="15720" shape="2" size="16"/>
			<output>
				<port id="1" precision="I64">
					<dim>2</dim>
				</port>
			</output>
		</layer>
		<layer id="196" name="517/VariadicSplit" type="VariadicSplit" version="opset1">
			<input>
				<port id="0">
					<dim>1</dim>
					<dim>116</dim>
					<dim>40</dim>
					<dim>40</dim>
				</port>
				<port id="1"/>
				<port id="2">
					<dim>2</dim>
				</port>
			</input>
			<output>
				<port id="3" precision="FP16">
					<dim>1</dim>
					<dim>58</dim>
					<dim>40</dim>
					<dim>40</dim>
				</port>
				<port id="4" precision="FP16">
					<dim>1</dim>
					<dim>58</dim>
					<dim>40</dim>
					<dim>40</dim>
				</port>
			</output>
		</layer>
		<layer id="197" name="520/mean/Fused_Mul_3692836930_const" type="Const" version="opset1">
			<data element_type="f16" offset="45432" shape="58,58,1,1" size="6728"/>
			<output>
				<port id="1" precision="FP16">
					<dim>58</dim>
					<dim>58</dim>
					<dim>1</dim>
					<dim>1</dim>
				</port>
			</output>
		</layer>
		<layer id="198" name="519" type="Convolution" version="opset1">
			<data dilations="1,1" output_padding="0,0" pads_begin="0,0" pads_end="0,0" strides="1,1"/>
			<input>
				<port id="0">
					<dim>1</dim>
					<dim>58</dim>
					<dim>40</dim>
					<dim>40</dim>
				</port>
				<port id="1">
					<dim>58</dim>
					<dim>58</dim>
					<dim>1</dim>
					<dim>1</dim>
				</port>
			</input>
			<output>
				<port id="2" precision="FP16">
					<dim>1</dim>
					<dim>58</dim>
					<dim>40</dim>
					<dim>40</dim>
				</port>
			</output>
		</layer>
		<layer id="199" name="data_add_335813358634868/EltwiseUnsqueeze35502_const" type="Const" version="opset1">
			<data element_type="f16" offset="52160" shape="1,58,1,1" size="116"/>
			<output>
				<port id="1" precision="FP16">
					<dim>1</dim>
					<dim>58</dim>
					<dim>1</dim>
					<dim>1</dim>
				</port>
			</output>
		</layer>
		<layer id="200" name="520/variance/Fused_Add_" type="Add" version="opset1">
			<input>
				<port id="0">
					<dim>1</dim>
					<dim>58</dim>
					<dim>40</dim>
					<dim>40</dim>
				</port>
				<port id="1">
					<dim>1</dim>
					<dim>58</dim>
					<dim>1</dim>
					<dim>1</dim>
				</port>
			</input>
			<output>
				<port id="2" precision="FP16">
					<dim>1</dim>
					<dim>58</dim>
					<dim>40</dim>
					<dim>40</dim>
				</port>
			</output>
		</layer>
		<layer id="201" name="521" type="ReLU" version="opset1">
			<input>
				<port id="0">
					<dim>1</dim>
					<dim>58</dim>
					<dim>40</dim>
					<dim>40</dim>
				</port>
			</input>
			<output>
				<port id="1" precision="FP16">
					<dim>1</dim>
					<dim>58</dim>
					<dim>40</dim>
					<dim>40</dim>
				</port>
			</output>
		</layer>
		<layer id="202" name="7182771830_const" type="Const" version="opset1">
			<data element_type="f16" offset="52276" shape="58,1,1,3,3" size="1044"/>
			<output>
				<port id="1" precision="FP16">
					<dim>58</dim>
					<dim>1</dim>
					<dim>1</dim>
					<dim>3</dim>
					<dim>3</dim>
				</port>
			</output>
		</layer>
		<layer id="203" name="522" type="GroupConvolution" version="opset1">
			<data dilations="1,1" output_padding="0,0" pads_begin="1,1" pads_end="1,1" strides="1,1"/>
			<input>
				<port id="0">
					<dim>1</dim>
					<dim>58</dim>
					<dim>40</dim>
					<dim>40</dim>
				</port>
				<port id="1">
					<dim>58</dim>
					<dim>1</dim>
					<dim>1</dim>
					<dim>3</dim>
					<dim>3</dim>
				</port>
			</input>
			<output>
				<port id="2" precision="FP16">
					<dim>1</dim>
					<dim>58</dim>
					<dim>40</dim>
					<dim>40</dim>
				</port>
			</output>
		</layer>
		<layer id="204" name="data_add_335893359434870/EltwiseUnsqueeze35510_const" type="Const" version="opset1">
			<data element_type="f16" offset="53320" shape="1,58,1,1" size="116"/>
			<output>
				<port id="1" precision="FP16">
					<dim>1</dim>
					<dim>58</dim>
					<dim>1</dim>
					<dim>1</dim>
				</port>
			</output>
		</layer>
		<layer id="205" name="523/variance/Fused_Add_" type="Add" version="opset1">
			<input>
				<port id="0">
					<dim>1</dim>
					<dim>58</dim>
					<dim>40</dim>
					<dim>40</dim>
				</port>
				<port id="1">
					<dim>1</dim>
					<dim>58</dim>
					<dim>1</dim>
					<dim>1</dim>
				</port>
			</input>
			<output>
				<port id="2" precision="FP16">
					<dim>1</dim>
					<dim>58</dim>
					<dim>40</dim>
					<dim>40</dim>
				</port>
			</output>
		</layer>
		<layer id="206" name="525/mean/Fused_Mul_3693636938_const" type="Const" version="opset1">
			<data element_type="f16" offset="53436" shape="58,58,1,1" size="6728"/>
			<output>
				<port id="1" precision="FP16">
					<dim>58</dim>
					<dim>58</dim>
					<dim>1</dim>
					<dim>1</dim>
				</port>
			</output>
		</layer>
		<layer id="207" name="524" type="Convolution" version="opset1">
			<data dilations="1,1" output_padding="0,0" pads_begin="0,0" pads_end="0,0" strides="1,1"/>
			<input>
				<port id="0">
					<dim>1</dim>
					<dim>58</dim>
					<dim>40</dim>
					<dim>40</dim>
				</port>
				<port id="1">
					<dim>58</dim>
					<dim>58</dim>
					<dim>1</dim>
					<dim>1</dim>
				</port>
			</input>
			<output>
				<port id="2" precision="FP16">
					<dim>1</dim>
					<dim>58</dim>
					<dim>40</dim>
					<dim>40</dim>
				</port>
			</output>
		</layer>
		<layer id="208" name="data_add_335973360234872/EltwiseUnsqueeze35518_const" type="Const" version="opset1">
			<data element_type="f16" offset="60164" shape="1,58,1,1" size="116"/>
			<output>
				<port id="1" precision="FP16">
					<dim>1</dim>
					<dim>58</dim>
					<dim>1</dim>
					<dim>1</dim>
				</port>
			</output>
		</layer>
		<layer id="209" name="525/variance/Fused_Add_" type="Add" version="opset1">
			<input>
				<port id="0">
					<dim>1</dim>
					<dim>58</dim>
					<dim>40</dim>
					<dim>40</dim>
				</port>
				<port id="1">
					<dim>1</dim>
					<dim>58</dim>
					<dim>1</dim>
					<dim>1</dim>
				</port>
			</input>
			<output>
				<port id="2" precision="FP16">
					<dim>1</dim>
					<dim>58</dim>
					<dim>40</dim>
					<dim>40</dim>
				</port>
			</output>
		</layer>
		<layer id="210" name="526" type="ReLU" version="opset1">
			<input>
				<port id="0">
					<dim>1</dim>
					<dim>58</dim>
					<dim>40</dim>
					<dim>40</dim>
				</port>
			</input>
			<output>
				<port id="1" precision="FP16">
					<dim>1</dim>
					<dim>58</dim>
					<dim>40</dim>
					<dim>40</dim>
				</port>
			</output>
		</layer>
		<layer id="211" name="527" type="Concat" version="opset1">
			<data axis="1"/>
			<input>
				<port id="0">
					<dim>1</dim>
					<dim>58</dim>
					<dim>40</dim>
					<dim>40</dim>
				</port>
				<port id="1">
					<dim>1</dim>
					<dim>58</dim>
					<dim>40</dim>
					<dim>40</dim>
				</port>
			</input>
			<output>
				<port id="2" precision="FP16">
					<dim>1</dim>
					<dim>116</dim>
					<dim>40</dim>
					<dim>40</dim>
				</port>
			</output>
		</layer>
		<layer id="212" name="529" type="ShapeOf" version="opset3">
			<data output_type="i64"/>
			<input>
				<port id="0">
					<dim>1</dim>
					<dim>116</dim>
					<dim>40</dim>
					<dim>40</dim>
				</port>
			</input>
			<output>
				<port id="1" precision="I64">
					<dim>4</dim>
				</port>
			</output>
		</layer>
		<layer id="213" name="5302486/Cast_173950_const" type="Const" version="opset1">
			<data element_type="i32" offset="15640" shape="" size="4"/>
			<output>
				<port id="1" precision="I32"/>
			</output>
		</layer>
		<layer id="214" name="5302486/Cast_273952_const" type="Const" version="opset1">
			<data element_type="i64" offset="15644" shape="" size="8"/>
			<output>
				<port id="1" precision="I64"/>
			</output>
		</layer>
		<layer id="215" name="5302486" type="Gather" version="opset1">
			<input>
				<port id="0">
					<dim>4</dim>
				</port>
				<port id="1"/>
				<port id="2"/>
			</input>
			<output>
				<port id="3" precision="I64"/>
			</output>
		</layer>
		<layer id="216" name="543/Dims/Output_0/Data__const" type="Const" version="opset1">
			<data element_type="i64" offset="15644" shape="1" size="8"/>
			<output>
				<port id="1" precision="I64">
					<dim>1</dim>
				</port>
			</output>
		</layer>
		<layer id="217" name="543/Unsqueeze" type="Unsqueeze" version="opset1">
			<input>
				<port id="0"/>
				<port id="1">
					<dim>1</dim>
				</port>
			</input>
			<output>
				<port id="2" precision="I64">
					<dim>1</dim>
				</port>
			</output>
		</layer>
		<layer id="218" name="544/Unsqueeze/Output_0/Data__const" type="Const" version="opset1">
			<data element_type="i64" offset="15652" shape="1" size="8"/>
			<output>
				<port id="1" precision="I64">
					<dim>1</dim>
				</port>
			</output>
		</layer>
		<layer id="219" name="532" type="ShapeOf" version="opset3">
			<data output_type="i64"/>
			<input>
				<port id="0">
					<dim>1</dim>
					<dim>116</dim>
					<dim>40</dim>
					<dim>40</dim>
				</port>
			</input>
			<output>
				<port id="1" precision="I64">
					<dim>4</dim>
				</port>
			</output>
		</layer>
		<layer id="220" name="5332516/Cast_174466_const" type="Const" version="opset1">
			<data element_type="i32" offset="15660" shape="" size="4"/>
			<output>
				<port id="1" precision="I32"/>
			</output>
		</layer>
		<layer id="221" name="5332516/Cast_274468_const" type="Const" version="opset1">
			<data element_type="i64" offset="15644" shape="" size="8"/>
			<output>
				<port id="1" precision="I64"/>
			</output>
		</layer>
		<layer id="222" name="5332516" type="Gather" version="opset1">
			<input>
				<port id="0">
					<dim>4</dim>
				</port>
				<port id="1"/>
				<port id="2"/>
			</input>
			<output>
				<port id="3" precision="I64"/>
			</output>
		</layer>
		<layer id="223" name="540/Output_0/Data__const" type="Const" version="opset1">
			<data element_type="i64" offset="15652" shape="" size="8"/>
			<output>
				<port id="1" precision="I64"/>
			</output>
		</layer>
		<layer id="224" name="541" type="Divide" version="opset1">
			<input>
				<port id="0"/>
				<port id="1"/>
			</input>
			<output>
				<port id="2" precision="I64"/>
			</output>
		</layer>
		<layer id="225" name="545/Dims/Output_0/Data__const" type="Const" version="opset1">
			<data element_type="i64" offset="15644" shape="1" size="8"/>
			<output>
				<port id="1" precision="I64">
					<dim>1</dim>
				</port>
			</output>
		</layer>
		<layer id="226" name="545/Unsqueeze" type="Unsqueeze" version="opset1">
			<input>
				<port id="0"/>
				<port id="1">
					<dim>1</dim>
				</port>
			</input>
			<output>
				<port id="2" precision="I64">
					<dim>1</dim>
				</port>
			</output>
		</layer>
		<layer id="227" name="535" type="ShapeOf" version="opset3">
			<data output_type="i64"/>
			<input>
				<port id="0">
					<dim>1</dim>
					<dim>116</dim>
					<dim>40</dim>
					<dim>40</dim>
				</port>
			</input>
			<output>
				<port id="1" precision="I64">
					<dim>4</dim>
				</port>
			</output>
		</layer>
		<layer id="228" name="5362364/Cast_174044_const" type="Const" version="opset1">
			<data element_type="i32" offset="15664" shape="" size="4"/>
			<output>
				<port id="1" precision="I32"/>
			</output>
		</layer>
		<layer id="229" name="5362364/Cast_274046_const" type="Const" version="opset1">
			<data element_type="i64" offset="15644" shape="" size="8"/>
			<output>
				<port id="1" precision="I64"/>
			</output>
		</layer>
		<layer id="230" name="5362364" type="Gather" version="opset1">
			<input>
				<port id="0">
					<dim>4</dim>
				</port>
				<port id="1"/>
				<port id="2"/>
			</input>
			<output>
				<port id="3" precision="I64"/>
			</output>
		</layer>
		<layer id="231" name="546/Dims/Output_0/Data__const" type="Const" version="opset1">
			<data element_type="i64" offset="15644" shape="1" size="8"/>
			<output>
				<port id="1" precision="I64">
					<dim>1</dim>
				</port>
			</output>
		</layer>
		<layer id="232" name="546/Unsqueeze" type="Unsqueeze" version="opset1">
			<input>
				<port id="0"/>
				<port id="1">
					<dim>1</dim>
				</port>
			</input>
			<output>
				<port id="2" precision="I64">
					<dim>1</dim>
				</port>
			</output>
		</layer>
		<layer id="233" name="538" type="ShapeOf" version="opset3">
			<data output_type="i64"/>
			<input>
				<port id="0">
					<dim>1</dim>
					<dim>116</dim>
					<dim>40</dim>
					<dim>40</dim>
				</port>
			</input>
			<output>
				<port id="1" precision="I64">
					<dim>4</dim>
				</port>
			</output>
		</layer>
		<layer id="234" name="5392550/Cast_173822_const" type="Const" version="opset1">
			<data element_type="i32" offset="15668" shape="" size="4"/>
			<output>
				<port id="1" precision="I32"/>
			</output>
		</layer>
		<layer id="235" name="5392550/Cast_273824_const" type="Const" version="opset1">
			<data element_type="i64" offset="15644" shape="" size="8"/>
			<output>
				<port id="1" precision="I64"/>
			</output>
		</layer>
		<layer id="236" name="5392550" type="Gather" version="opset1">
			<input>
				<port id="0">
					<dim>4</dim>
				</port>
				<port id="1"/>
				<port id="2"/>
			</input>
			<output>
				<port id="3" precision="I64"/>
			</output>
		</layer>
		<layer id="237" name="547/Dims/Output_0/Data__const" type="Const" version="opset1">
			<data element_type="i64" offset="15644" shape="1" size="8"/>
			<output>
				<port id="1" precision="I64">
					<dim>1</dim>
				</port>
			</output>
		</layer>
		<layer id="238" name="547/Unsqueeze" type="Unsqueeze" version="opset1">
			<input>
				<port id="0"/>
				<port id="1">
					<dim>1</dim>
				</port>
			</input>
			<output>
				<port id="2" precision="I64">
					<dim>1</dim>
				</port>
			</output>
		</layer>
		<layer id="239" name="548" type="Concat" version="opset1">
			<data axis="0"/>
			<input>
				<port id="0">
					<dim>1</dim>
				</port>
				<port id="1">
					<dim>1</dim>
				</port>
				<port id="2">
					<dim>1</dim>
				</port>
				<port id="3">
					<dim>1</dim>
				</port>
				<port id="4">
					<dim>1</dim>
				</port>
			</input>
			<output>
				<port id="5" precision="I64">
					<dim>5</dim>
				</port>
			</output>
		</layer>
		<layer id="240" name="549" type="Reshape" version="opset1">
			<data special_zero="True"/>
			<input>
				<port id="0">
					<dim>1</dim>
					<dim>116</dim>
					<dim>40</dim>
					<dim>40</dim>
				</port>
				<port id="1">
					<dim>5</dim>
				</port>
			</input>
			<output>
				<port id="2" precision="FP16">
					<dim>1</dim>
					<dim>2</dim>
					<dim>58</dim>
					<dim>40</dim>
					<dim>40</dim>
				</port>
			</output>
		</layer>
		<layer id="241" name="550/Cast_173798_const" type="Const" version="opset1">
			<data element_type="i64" offset="15672" shape="5" size="40"/>
			<output>
				<port id="1" precision="I64">
					<dim>5</dim>
				</port>
			</output>
		</layer>
		<layer id="242" name="550" type="Transpose" version="opset1">
			<input>
				<port id="0">
					<dim>1</dim>
					<dim>2</dim>
					<dim>58</dim>
					<dim>40</dim>
					<dim>40</dim>
				</port>
				<port id="1">
					<dim>5</dim>
				</port>
			</input>
			<output>
				<port id="2" precision="FP16">
					<dim>1</dim>
					<dim>58</dim>
					<dim>2</dim>
					<dim>40</dim>
					<dim>40</dim>
				</port>
			</output>
		</layer>
		<layer id="243" name="551/Dims/Output_0/Data__const" type="Const" version="opset1">
			<data element_type="i64" offset="15644" shape="1" size="8"/>
			<output>
				<port id="1" precision="I64">
					<dim>1</dim>
				</port>
			</output>
		</layer>
		<layer id="244" name="551/Unsqueeze" type="Unsqueeze" version="opset1">
			<input>
				<port id="0"/>
				<port id="1">
					<dim>1</dim>
				</port>
			</input>
			<output>
				<port id="2" precision="I64">
					<dim>1</dim>
				</port>
			</output>
		</layer>
		<layer id="245" name="552/Dims/Output_0/Data__const" type="Const" version="opset1">
			<data element_type="i64" offset="15644" shape="1" size="8"/>
			<output>
				<port id="1" precision="I64">
					<dim>1</dim>
				</port>
			</output>
		</layer>
		<layer id="246" name="552/Unsqueeze" type="Unsqueeze" version="opset1">
			<input>
				<port id="0"/>
				<port id="1">
					<dim>1</dim>
				</port>
			</input>
			<output>
				<port id="2" precision="I64">
					<dim>1</dim>
				</port>
			</output>
		</layer>
		<layer id="247" name="553/Dims/Output_0/Data__const" type="Const" version="opset1">
			<data element_type="i64" offset="15644" shape="1" size="8"/>
			<output>
				<port id="1" precision="I64">
					<dim>1</dim>
				</port>
			</output>
		</layer>
		<layer id="248" name="553/Unsqueeze" type="Unsqueeze" version="opset1">
			<input>
				<port id="0"/>
				<port id="1">
					<dim>1</dim>
				</port>
			</input>
			<output>
				<port id="2" precision="I64">
					<dim>1</dim>
				</port>
			</output>
		</layer>
		<layer id="249" name="554/Dims/Output_0/Data__const" type="Const" version="opset1">
			<data element_type="i64" offset="15644" shape="1" size="8"/>
			<output>
				<port id="1" precision="I64">
					<dim>1</dim>
				</port>
			</output>
		</layer>
		<layer id="250" name="554/Unsqueeze" type="Unsqueeze" version="opset1">
			<input>
				<port id="0"/>
				<port id="1">
					<dim>1</dim>
				</port>
			</input>
			<output>
				<port id="2" precision="I64">
					<dim>1</dim>
				</port>
			</output>
		</layer>
		<layer id="251" name="555" type="Concat" version="opset1">
			<data axis="0"/>
			<input>
				<port id="0">
					<dim>1</dim>
				</port>
				<port id="1">
					<dim>1</dim>
				</port>
				<port id="2">
					<dim>1</dim>
				</port>
				<port id="3">
					<dim>1</dim>
				</port>
			</input>
			<output>
				<port id="4" precision="I64">
					<dim>4</dim>
				</port>
			</output>
		</layer>
		<layer id="252" name="556" type="Reshape" version="opset1">
			<data special_zero="True"/>
			<input>
				<port id="0">
					<dim>1</dim>
					<dim>58</dim>
					<dim>2</dim>
					<dim>40</dim>
					<dim>40</dim>
				</port>
				<port id="1">
					<dim>4</dim>
				</port>
			</input>
			<output>
				<port id="2" precision="FP16">
					<dim>1</dim>
					<dim>116</dim>
					<dim>40</dim>
					<dim>40</dim>
				</port>
			</output>
		</layer>
		<layer id="253" name="neck.lateral_convs.0.conv.weight/Output_0/Data__const" type="Const" version="opset1">
			<data element_type="f16" offset="60280" shape="48,116,1,1" size="11136"/>
			<output>
				<port id="1" precision="FP16">
					<dim>48</dim>
					<dim>116</dim>
					<dim>1</dim>
					<dim>1</dim>
				</port>
			</output>
		</layer>
		<layer id="254" name="1043/WithoutBiases" type="Convolution" version="opset1">
			<data dilations="1,1" output_padding="0,0" pads_begin="0,0" pads_end="0,0" strides="1,1"/>
			<input>
				<port id="0">
					<dim>1</dim>
					<dim>116</dim>
					<dim>40</dim>
					<dim>40</dim>
				</port>
				<port id="1">
					<dim>48</dim>
					<dim>116</dim>
					<dim>1</dim>
					<dim>1</dim>
				</port>
			</input>
			<output>
				<port id="2" precision="FP16">
					<dim>1</dim>
					<dim>48</dim>
					<dim>40</dim>
					<dim>40</dim>
				</port>
			</output>
		</layer>
		<layer id="255" name="1043/Dims2058634820/EltwiseUnsqueeze35350_const" type="Const" version="opset1">
			<data element_type="f16" offset="71416" shape="1,48,1,1" size="96"/>
			<output>
				<port id="1" precision="FP16">
					<dim>1</dim>
					<dim>48</dim>
					<dim>1</dim>
					<dim>1</dim>
				</port>
			</output>
		</layer>
		<layer id="256" name="1043" type="Add" version="opset1">
			<input>
				<port id="0">
					<dim>1</dim>
					<dim>48</dim>
					<dim>40</dim>
					<dim>40</dim>
				</port>
				<port id="1">
					<dim>1</dim>
					<dim>48</dim>
					<dim>1</dim>
					<dim>1</dim>
				</port>
			</input>
			<output>
				<port id="2" precision="FP16">
					<dim>1</dim>
					<dim>48</dim>
					<dim>40</dim>
					<dim>40</dim>
				</port>
			</output>
		</layer>
		<layer id="257" name="7187171874_const" type="Const" version="opset1">
			<data element_type="f16" offset="71512" shape="116,1,1,3,3" size="2088"/>
			<output>
				<port id="1" precision="FP16">
					<dim>116</dim>
					<dim>1</dim>
					<dim>1</dim>
					<dim>3</dim>
					<dim>3</dim>
				</port>
			</output>
		</layer>
		<layer id="258" name="557" type="GroupConvolution" version="opset1">
			<data dilations="1,1" output_padding="0,0" pads_begin="1,1" pads_end="1,1" strides="2,2"/>
			<input>
				<port id="0">
					<dim>1</dim>
					<dim>116</dim>
					<dim>40</dim>
					<dim>40</dim>
				</port>
				<port id="1">
					<dim>116</dim>
					<dim>1</dim>
					<dim>1</dim>
					<dim>3</dim>
					<dim>3</dim>
				</port>
			</input>
			<output>
				<port id="2" precision="FP16">
					<dim>1</dim>
					<dim>116</dim>
					<dim>20</dim>
					<dim>20</dim>
				</port>
			</output>
		</layer>
		<layer id="259" name="data_add_336293363434880/EltwiseUnsqueeze35550_const" type="Const" version="opset1">
			<data element_type="f16" offset="73600" shape="1,116,1,1" size="232"/>
			<output>
				<port id="1" precision="FP16">
					<dim>1</dim>
					<dim>116</dim>
					<dim>1</dim>
					<dim>1</dim>
				</port>
			</output>
		</layer>
		<layer id="260" name="558/variance/Fused_Add_" type="Add" version="opset1">
			<input>
				<port id="0">
					<dim>1</dim>
					<dim>116</dim>
					<dim>20</dim>
					<dim>20</dim>
				</port>
				<port id="1">
					<dim>1</dim>
					<dim>116</dim>
					<dim>1</dim>
					<dim>1</dim>
				</port>
			</input>
			<output>
				<port id="2" precision="FP16">
					<dim>1</dim>
					<dim>116</dim>
					<dim>20</dim>
					<dim>20</dim>
				</port>
			</output>
		</layer>
		<layer id="261" name="560/mean/Fused_Mul_3695636958_const" type="Const" version="opset1">
			<data element_type="f16" offset="73832" shape="116,116,1,1" size="26912"/>
			<output>
				<port id="1" precision="FP16">
					<dim>116</dim>
					<dim>116</dim>
					<dim>1</dim>
					<dim>1</dim>
				</port>
			</output>
		</layer>
		<layer id="262" name="559" type="Convolution" version="opset1">
			<data dilations="1,1" output_padding="0,0" pads_begin="0,0" pads_end="0,0" strides="1,1"/>
			<input>
				<port id="0">
					<dim>1</dim>
					<dim>116</dim>
					<dim>20</dim>
					<dim>20</dim>
				</port>
				<port id="1">
					<dim>116</dim>
					<dim>116</dim>
					<dim>1</dim>
					<dim>1</dim>
				</port>
			</input>
			<output>
				<port id="2" precision="FP16">
					<dim>1</dim>
					<dim>116</dim>
					<dim>20</dim>
					<dim>20</dim>
				</port>
			</output>
		</layer>
		<layer id="263" name="data_add_336373364234882/EltwiseUnsqueeze35558_const" type="Const" version="opset1">
			<data element_type="f16" offset="100744" shape="1,116,1,1" size="232"/>
			<output>
				<port id="1" precision="FP16">
					<dim>1</dim>
					<dim>116</dim>
					<dim>1</dim>
					<dim>1</dim>
				</port>
			</output>
		</layer>
		<layer id="264" name="560/variance/Fused_Add_" type="Add" version="opset1">
			<input>
				<port id="0">
					<dim>1</dim>
					<dim>116</dim>
					<dim>20</dim>
					<dim>20</dim>
				</port>
				<port id="1">
					<dim>1</dim>
					<dim>116</dim>
					<dim>1</dim>
					<dim>1</dim>
				</port>
			</input>
			<output>
				<port id="2" precision="FP16">
					<dim>1</dim>
					<dim>116</dim>
					<dim>20</dim>
					<dim>20</dim>
				</port>
			</output>
		</layer>
		<layer id="265" name="561" type="ReLU" version="opset1">
			<input>
				<port id="0">
					<dim>1</dim>
					<dim>116</dim>
					<dim>20</dim>
					<dim>20</dim>
				</port>
			</input>
			<output>
				<port id="1" precision="FP16">
					<dim>1</dim>
					<dim>116</dim>
					<dim>20</dim>
					<dim>20</dim>
				</port>
			</output>
		</layer>
		<layer id="266" name="563/mean/Fused_Mul_3694036942_const" type="Const" version="opset1">
			<data element_type="f16" offset="100976" shape="116,116,1,1" size="26912"/>
			<output>
				<port id="1" precision="FP16">
					<dim>116</dim>
					<dim>116</dim>
					<dim>1</dim>
					<dim>1</dim>
				</port>
			</output>
		</layer>
		<layer id="267" name="562" type="Convolution" version="opset1">
			<data dilations="1,1" output_padding="0,0" pads_begin="0,0" pads_end="0,0" strides="1,1"/>
			<input>
				<port id="0">
					<dim>1</dim>
					<dim>116</dim>
					<dim>40</dim>
					<dim>40</dim>
				</port>
				<port id="1">
					<dim>116</dim>
					<dim>116</dim>
					<dim>1</dim>
					<dim>1</dim>
				</port>
			</input>
			<output>
				<port id="2" precision="FP16">
					<dim>1</dim>
					<dim>116</dim>
					<dim>40</dim>
					<dim>40</dim>
				</port>
			</output>
		</layer>
		<layer id="268" name="data_add_336053361034874/EltwiseUnsqueeze35526_const" type="Const" version="opset1">
			<data element_type="f16" offset="127888" shape="1,116,1,1" size="232"/>
			<output>
				<port id="1" precision="FP16">
					<dim>1</dim>
					<dim>116</dim>
					<dim>1</dim>
					<dim>1</dim>
				</port>
			</output>
		</layer>
		<layer id="269" name="563/variance/Fused_Add_" type="Add" version="opset1">
			<input>
				<port id="0">
					<dim>1</dim>
					<dim>116</dim>
					<dim>40</dim>
					<dim>40</dim>
				</port>
				<port id="1">
					<dim>1</dim>
					<dim>116</dim>
					<dim>1</dim>
					<dim>1</dim>
				</port>
			</input>
			<output>
				<port id="2" precision="FP16">
					<dim>1</dim>
					<dim>116</dim>
					<dim>40</dim>
					<dim>40</dim>
				</port>
			</output>
		</layer>
		<layer id="270" name="564" type="ReLU" version="opset1">
			<input>
				<port id="0">
					<dim>1</dim>
					<dim>116</dim>
					<dim>40</dim>
					<dim>40</dim>
				</port>
			</input>
			<output>
				<port id="1" precision="FP16">
					<dim>1</dim>
					<dim>116</dim>
					<dim>40</dim>
					<dim>40</dim>
				</port>
			</output>
		</layer>
		<layer id="271" name="7181971822_const" type="Const" version="opset1">
			<data element_type="f16" offset="128120" shape="116,1,1,3,3" size="2088"/>
			<output>
				<port id="1" precision="FP16">
					<dim>116</dim>
					<dim>1</dim>
					<dim>1</dim>
					<dim>3</dim>
					<dim>3</dim>
				</port>
			</output>
		</layer>
		<layer id="272" name="565" type="GroupConvolution" version="opset1">
			<data dilations="1,1" output_padding="0,0" pads_begin="1,1" pads_end="1,1" strides="2,2"/>
			<input>
				<port id="0">
					<dim>1</dim>
					<dim>116</dim>
					<dim>40</dim>
					<dim>40</dim>
				</port>
				<port id="1">
					<dim>116</dim>
					<dim>1</dim>
					<dim>1</dim>
					<dim>3</dim>
					<dim>3</dim>
				</port>
			</input>
			<output>
				<port id="2" precision="FP16">
					<dim>1</dim>
					<dim>116</dim>
					<dim>20</dim>
					<dim>20</dim>
				</port>
			</output>
		</layer>
		<layer id="273" name="data_add_336133361834876/EltwiseUnsqueeze35534_const" type="Const" version="opset1">
			<data element_type="f16" offset="130208" shape="1,116,1,1" size="232"/>
			<output>
				<port id="1" precision="FP16">
					<dim>1</dim>
					<dim>116</dim>
					<dim>1</dim>
					<dim>1</dim>
				</port>
			</output>
		</layer>
		<layer id="274" name="566/variance/Fused_Add_" type="Add" version="opset1">
			<input>
				<port id="0">
					<dim>1</dim>
					<dim>116</dim>
					<dim>20</dim>
					<dim>20</dim>
				</port>
				<port id="1">
					<dim>1</dim>
					<dim>116</dim>
					<dim>1</dim>
					<dim>1</dim>
				</port>
			</input>
			<output>
				<port id="2" precision="FP16">
					<dim>1</dim>
					<dim>116</dim>
					<dim>20</dim>
					<dim>20</dim>
				</port>
			</output>
		</layer>
		<layer id="275" name="568/mean/Fused_Mul_3694836950_const" type="Const" version="opset1">
			<data element_type="f16" offset="130440" shape="116,116,1,1" size="26912"/>
			<output>
				<port id="1" precision="FP16">
					<dim>116</dim>
					<dim>116</dim>
					<dim>1</dim>
					<dim>1</dim>
				</port>
			</output>
		</layer>
		<layer id="276" name="567" type="Convolution" version="opset1">
			<data dilations="1,1" output_padding="0,0" pads_begin="0,0" pads_end="0,0" strides="1,1"/>
			<input>
				<port id="0">
					<dim>1</dim>
					<dim>116</dim>
					<dim>20</dim>
					<dim>20</dim>
				</port>
				<port id="1">
					<dim>116</dim>
					<dim>116</dim>
					<dim>1</dim>
					<dim>1</dim>
				</port>
			</input>
			<output>
				<port id="2" precision="FP16">
					<dim>1</dim>
					<dim>116</dim>
					<dim>20</dim>
					<dim>20</dim>
				</port>
			</output>
		</layer>
		<layer id="277" name="data_add_336213362634878/EltwiseUnsqueeze35542_const" type="Const" version="opset1">
			<data element_type="f16" offset="157352" shape="1,116,1,1" size="232"/>
			<output>
				<port id="1" precision="FP16">
					<dim>1</dim>
					<dim>116</dim>
					<dim>1</dim>
					<dim>1</dim>
				</port>
			</output>
		</layer>
		<layer id="278" name="568/variance/Fused_Add_" type="Add" version="opset1">
			<input>
				<port id="0">
					<dim>1</dim>
					<dim>116</dim>
					<dim>20</dim>
					<dim>20</dim>
				</port>
				<port id="1">
					<dim>1</dim>
					<dim>116</dim>
					<dim>1</dim>
					<dim>1</dim>
				</port>
			</input>
			<output>
				<port id="2" precision="FP16">
					<dim>1</dim>
					<dim>116</dim>
					<dim>20</dim>
					<dim>20</dim>
				</port>
			</output>
		</layer>
		<layer id="279" name="569" type="ReLU" version="opset1">
			<input>
				<port id="0">
					<dim>1</dim>
					<dim>116</dim>
					<dim>20</dim>
					<dim>20</dim>
				</port>
			</input>
			<output>
				<port id="1" precision="FP16">
					<dim>1</dim>
					<dim>116</dim>
					<dim>20</dim>
					<dim>20</dim>
				</port>
			</output>
		</layer>
		<layer id="280" name="570" type="Concat" version="opset1">
			<data axis="1"/>
			<input>
				<port id="0">
					<dim>1</dim>
					<dim>116</dim>
					<dim>20</dim>
					<dim>20</dim>
				</port>
				<port id="1">
					<dim>1</dim>
					<dim>116</dim>
					<dim>20</dim>
					<dim>20</dim>
				</port>
			</input>
			<output>
				<port id="2" precision="FP16">
					<dim>1</dim>
					<dim>232</dim>
					<dim>20</dim>
					<dim>20</dim>
				</port>
			</output>
		</layer>
		<layer id="281" name="572" type="ShapeOf" version="opset3">
			<data output_type="i64"/>
			<input>
				<port id="0">
					<dim>1</dim>
					<dim>232</dim>
					<dim>20</dim>
					<dim>20</dim>
				</port>
			</input>
			<output>
				<port id="1" precision="I64">
					<dim>4</dim>
				</port>
			</output>
		</layer>
		<layer id="282" name="5732346/Cast_174420_const" type="Const" version="opset1">
			<data element_type="i32" offset="15640" shape="" size="4"/>
			<output>
				<port id="1" precision="I32"/>
			</output>
		</layer>
		<layer id="283" name="5732346/Cast_274422_const" type="Const" version="opset1">
			<data element_type="i64" offset="15644" shape="" size="8"/>
			<output>
				<port id="1" precision="I64"/>
			</output>
		</layer>
		<layer id="284" name="5732346" type="Gather" version="opset1">
			<input>
				<port id="0">
					<dim>4</dim>
				</port>
				<port id="1"/>
				<port id="2"/>
			</input>
			<output>
				<port id="3" precision="I64"/>
			</output>
		</layer>
		<layer id="285" name="586/Dims/Output_0/Data__const" type="Const" version="opset1">
			<data element_type="i64" offset="15644" shape="1" size="8"/>
			<output>
				<port id="1" precision="I64">
					<dim>1</dim>
				</port>
			</output>
		</layer>
		<layer id="286" name="586/Unsqueeze" type="Unsqueeze" version="opset1">
			<input>
				<port id="0"/>
				<port id="1">
					<dim>1</dim>
				</port>
			</input>
			<output>
				<port id="2" precision="I64">
					<dim>1</dim>
				</port>
			</output>
		</layer>
		<layer id="287" name="587/Unsqueeze/Output_0/Data__const" type="Const" version="opset1">
			<data element_type="i64" offset="15652" shape="1" size="8"/>
			<output>
				<port id="1" precision="I64">
					<dim>1</dim>
				</port>
			</output>
		</layer>
		<layer id="288" name="575" type="ShapeOf" version="opset3">
			<data output_type="i64"/>
			<input>
				<port id="0">
					<dim>1</dim>
					<dim>232</dim>
					<dim>20</dim>
					<dim>20</dim>
				</port>
			</input>
			<output>
				<port id="1" precision="I64">
					<dim>4</dim>
				</port>
			</output>
		</layer>
		<layer id="289" name="5762602/Cast_173958_const" type="Const" version="opset1">
			<data element_type="i32" offset="15660" shape="" size="4"/>
			<output>
				<port id="1" precision="I32"/>
			</output>
		</layer>
		<layer id="290" name="5762602/Cast_273960_const" type="Const" version="opset1">
			<data element_type="i64" offset="15644" shape="" size="8"/>
			<output>
				<port id="1" precision="I64"/>
			</output>
		</layer>
		<layer id="291" name="5762602" type="Gather" version="opset1">
			<input>
				<port id="0">
					<dim>4</dim>
				</port>
				<port id="1"/>
				<port id="2"/>
			</input>
			<output>
				<port id="3" precision="I64"/>
			</output>
		</layer>
		<layer id="292" name="583/Output_0/Data__const" type="Const" version="opset1">
			<data element_type="i64" offset="15652" shape="" size="8"/>
			<output>
				<port id="1" precision="I64"/>
			</output>
		</layer>
		<layer id="293" name="584" type="Divide" version="opset1">
			<input>
				<port id="0"/>
				<port id="1"/>
			</input>
			<output>
				<port id="2" precision="I64"/>
			</output>
		</layer>
		<layer id="294" name="588/Dims/Output_0/Data__const" type="Const" version="opset1">
			<data element_type="i64" offset="15644" shape="1" size="8"/>
			<output>
				<port id="1" precision="I64">
					<dim>1</dim>
				</port>
			</output>
		</layer>
		<layer id="295" name="588/Unsqueeze" type="Unsqueeze" version="opset1">
			<input>
				<port id="0"/>
				<port id="1">
					<dim>1</dim>
				</port>
			</input>
			<output>
				<port id="2" precision="I64">
					<dim>1</dim>
				</port>
			</output>
		</layer>
		<layer id="296" name="578" type="ShapeOf" version="opset3">
			<data output_type="i64"/>
			<input>
				<port id="0">
					<dim>1</dim>
					<dim>232</dim>
					<dim>20</dim>
					<dim>20</dim>
				</port>
			</input>
			<output>
				<port id="1" precision="I64">
					<dim>4</dim>
				</port>
			</output>
		</layer>
		<layer id="297" name="5792318/Cast_173716_const" type="Const" version="opset1">
			<data element_type="i32" offset="15664" shape="" size="4"/>
			<output>
				<port id="1" precision="I32"/>
			</output>
		</layer>
		<layer id="298" name="5792318/Cast_273718_const" type="Const" version="opset1">
			<data element_type="i64" offset="15644" shape="" size="8"/>
			<output>
				<port id="1" precision="I64"/>
			</output>
		</layer>
		<layer id="299" name="5792318" type="Gather" version="opset1">
			<input>
				<port id="0">
					<dim>4</dim>
				</port>
				<port id="1"/>
				<port id="2"/>
			</input>
			<output>
				<port id="3" precision="I64"/>
			</output>
		</layer>
		<layer id="300" name="589/Dims/Output_0/Data__const" type="Const" version="opset1">
			<data element_type="i64" offset="15644" shape="1" size="8"/>
			<output>
				<port id="1" precision="I64">
					<dim>1</dim>
				</port>
			</output>
		</layer>
		<layer id="301" name="589/Unsqueeze" type="Unsqueeze" version="opset1">
			<input>
				<port id="0"/>
				<port id="1">
					<dim>1</dim>
				</port>
			</input>
			<output>
				<port id="2" precision="I64">
					<dim>1</dim>
				</port>
			</output>
		</layer>
		<layer id="302" name="581" type="ShapeOf" version="opset3">
			<data output_type="i64"/>
			<input>
				<port id="0">
					<dim>1</dim>
					<dim>232</dim>
					<dim>20</dim>
					<dim>20</dim>
				</port>
			</input>
			<output>
				<port id="1" precision="I64">
					<dim>4</dim>
				</port>
			</output>
		</layer>
		<layer id="303" name="5822444/Cast_174068_const" type="Const" version="opset1">
			<data element_type="i32" offset="15668" shape="" size="4"/>
			<output>
				<port id="1" precision="I32"/>
			</output>
		</layer>
		<layer id="304" name="5822444/Cast_274070_const" type="Const" version="opset1">
			<data element_type="i64" offset="15644" shape="" size="8"/>
			<output>
				<port id="1" precision="I64"/>
			</output>
		</layer>
		<layer id="305" name="5822444" type="Gather" version="opset1">
			<input>
				<port id="0">
					<dim>4</dim>
				</port>
				<port id="1"/>
				<port id="2"/>
			</input>
			<output>
				<port id="3" precision="I64"/>
			</output>
		</layer>
		<layer id="306" name="590/Dims/Output_0/Data__const" type="Const" version="opset1">
			<data element_type="i64" offset="15644" shape="1" size="8"/>
			<output>
				<port id="1" precision="I64">
					<dim>1</dim>
				</port>
			</output>
		</layer>
		<layer id="307" name="590/Unsqueeze" type="Unsqueeze" version="opset1">
			<input>
				<port id="0"/>
				<port id="1">
					<dim>1</dim>
				</port>
			</input>
			<output>
				<port id="2" precision="I64">
					<dim>1</dim>
				</port>
			</output>
		</layer>
		<layer id="308" name="591" type="Concat" version="opset1">
			<data axis="0"/>
			<input>
				<port id="0">
					<dim>1</dim>
				</port>
				<port id="1">
					<dim>1</dim>
				</port>
				<port id="2">
					<dim>1</dim>
				</port>
				<port id="3">
					<dim>1</dim>
				</port>
				<port id="4">
					<dim>1</dim>
				</port>
			</input>
			<output>
				<port id="5" precision="I64">
					<dim>5</dim>
				</port>
			</output>
		</layer>
		<layer id="309" name="592" type="Reshape" version="opset1">
			<data special_zero="True"/>
			<input>
				<port id="0">
					<dim>1</dim>
					<dim>232</dim>
					<dim>20</dim>
					<dim>20</dim>
				</port>
				<port id="1">
					<dim>5</dim>
				</port>
			</input>
			<output>
				<port id="2" precision="FP16">
					<dim>1</dim>
					<dim>2</dim>
					<dim>116</dim>
					<dim>20</dim>
					<dim>20</dim>
				</port>
			</output>
		</layer>
		<layer id="310" name="593/Cast_173848_const" type="Const" version="opset1">
			<data element_type="i64" offset="15672" shape="5" size="40"/>
			<output>
				<port id="1" precision="I64">
					<dim>5</dim>
				</port>
			</output>
		</layer>
		<layer id="311" name="593" type="Transpose" version="opset1">
			<input>
				<port id="0">
					<dim>1</dim>
					<dim>2</dim>
					<dim>116</dim>
					<dim>20</dim>
					<dim>20</dim>
				</port>
				<port id="1">
					<dim>5</dim>
				</port>
			</input>
			<output>
				<port id="2" precision="FP16">
					<dim>1</dim>
					<dim>116</dim>
					<dim>2</dim>
					<dim>20</dim>
					<dim>20</dim>
				</port>
			</output>
		</layer>
		<layer id="312" name="594/Dims/Output_0/Data__const" type="Const" version="opset1">
			<data element_type="i64" offset="15644" shape="1" size="8"/>
			<output>
				<port id="1" precision="I64">
					<dim>1</dim>
				</port>
			</output>
		</layer>
		<layer id="313" name="594/Unsqueeze" type="Unsqueeze" version="opset1">
			<input>
				<port id="0"/>
				<port id="1">
					<dim>1</dim>
				</port>
			</input>
			<output>
				<port id="2" precision="I64">
					<dim>1</dim>
				</port>
			</output>
		</layer>
		<layer id="314" name="595/Dims/Output_0/Data__const" type="Const" version="opset1">
			<data element_type="i64" offset="15644" shape="1" size="8"/>
			<output>
				<port id="1" precision="I64">
					<dim>1</dim>
				</port>
			</output>
		</layer>
		<layer id="315" name="595/Unsqueeze" type="Unsqueeze" version="opset1">
			<input>
				<port id="0"/>
				<port id="1">
					<dim>1</dim>
				</port>
			</input>
			<output>
				<port id="2" precision="I64">
					<dim>1</dim>
				</port>
			</output>
		</layer>
		<layer id="316" name="596/Dims/Output_0/Data__const" type="Const" version="opset1">
			<data element_type="i64" offset="15644" shape="1" size="8"/>
			<output>
				<port id="1" precision="I64">
					<dim>1</dim>
				</port>
			</output>
		</layer>
		<layer id="317" name="596/Unsqueeze" type="Unsqueeze" version="opset1">
			<input>
				<port id="0"/>
				<port id="1">
					<dim>1</dim>
				</port>
			</input>
			<output>
				<port id="2" precision="I64">
					<dim>1</dim>
				</port>
			</output>
		</layer>
		<layer id="318" name="597/Dims/Output_0/Data__const" type="Const" version="opset1">
			<data element_type="i64" offset="15644" shape="1" size="8"/>
			<output>
				<port id="1" precision="I64">
					<dim>1</dim>
				</port>
			</output>
		</layer>
		<layer id="319" name="597/Unsqueeze" type="Unsqueeze" version="opset1">
			<input>
				<port id="0"/>
				<port id="1">
					<dim>1</dim>
				</port>
			</input>
			<output>
				<port id="2" precision="I64">
					<dim>1</dim>
				</port>
			</output>
		</layer>
		<layer id="320" name="598" type="Concat" version="opset1">
			<data axis="0"/>
			<input>
				<port id="0">
					<dim>1</dim>
				</port>
				<port id="1">
					<dim>1</dim>
				</port>
				<port id="2">
					<dim>1</dim>
				</port>
				<port id="3">
					<dim>1</dim>
				</port>
			</input>
			<output>
				<port id="4" precision="I64">
					<dim>4</dim>
				</port>
			</output>
		</layer>
		<layer id="321" name="599" type="Reshape" version="opset1">
			<data special_zero="True"/>
			<input>
				<port id="0">
					<dim>1</dim>
					<dim>116</dim>
					<dim>2</dim>
					<dim>20</dim>
					<dim>20</dim>
				</port>
				<port id="1">
					<dim>4</dim>
				</port>
			</input>
			<output>
				<port id="2" precision="FP16">
					<dim>1</dim>
					<dim>232</dim>
					<dim>20</dim>
					<dim>20</dim>
				</port>
			</output>
		</layer>
		<layer id="322" name="600/VariadicSplit_input_port_1/value/Output_0/Data__const" type="Const" version="opset1">
			<data element_type="i64" offset="15712" shape="" size="8"/>
			<output>
				<port id="1" precision="I64"/>
			</output>
		</layer>
		<layer id="323" name="600/VariadicSplit_input_port_2/value/Output_0/Data__const" type="Const" version="opset1">
			<data element_type="i64" offset="157584" shape="2" size="16"/>
			<output>
				<port id="1" precision="I64">
					<dim>2</dim>
				</port>
			</output>
		</layer>
		<layer id="324" name="600/VariadicSplit" type="VariadicSplit" version="opset1">
			<input>
				<port id="0">
					<dim>1</dim>
					<dim>232</dim>
					<dim>20</dim>
					<dim>20</dim>
				</port>
				<port id="1"/>
				<port id="2">
					<dim>2</dim>
				</port>
			</input>
			<output>
				<port id="3" precision="FP16">
					<dim>1</dim>
					<dim>116</dim>
					<dim>20</dim>
					<dim>20</dim>
				</port>
				<port id="4" precision="FP16">
					<dim>1</dim>
					<dim>116</dim>
					<dim>20</dim>
					<dim>20</dim>
				</port>
			</output>
		</layer>
		<layer id="325" name="603/mean/Fused_Mul_3696036962_const" type="Const" version="opset1">
			<data element_type="f16" offset="157600" shape="116,116,1,1" size="26912"/>
			<output>
				<port id="1" precision="FP16">
					<dim>116</dim>
					<dim>116</dim>
					<dim>1</dim>
					<dim>1</dim>
				</port>
			</output>
		</layer>
		<layer id="326" name="602" type="Convolution" version="opset1">
			<data dilations="1,1" output_padding="0,0" pads_begin="0,0" pads_end="0,0" strides="1,1"/>
			<input>
				<port id="0">
					<dim>1</dim>
					<dim>116</dim>
					<dim>20</dim>
					<dim>20</dim>
				</port>
				<port id="1">
					<dim>116</dim>
					<dim>116</dim>
					<dim>1</dim>
					<dim>1</dim>
				</port>
			</input>
			<output>
				<port id="2" precision="FP16">
					<dim>1</dim>
					<dim>116</dim>
					<dim>20</dim>
					<dim>20</dim>
				</port>
			</output>
		</layer>
		<layer id="327" name="data_add_336453365034884/EltwiseUnsqueeze35566_const" type="Const" version="opset1">
			<data element_type="f16" offset="184512" shape="1,116,1,1" size="232"/>
			<output>
				<port id="1" precision="FP16">
					<dim>1</dim>
					<dim>116</dim>
					<dim>1</dim>
					<dim>1</dim>
				</port>
			</output>
		</layer>
		<layer id="328" name="603/variance/Fused_Add_" type="Add" version="opset1">
			<input>
				<port id="0">
					<dim>1</dim>
					<dim>116</dim>
					<dim>20</dim>
					<dim>20</dim>
				</port>
				<port id="1">
					<dim>1</dim>
					<dim>116</dim>
					<dim>1</dim>
					<dim>1</dim>
				</port>
			</input>
			<output>
				<port id="2" precision="FP16">
					<dim>1</dim>
					<dim>116</dim>
					<dim>20</dim>
					<dim>20</dim>
				</port>
			</output>
		</layer>
		<layer id="329" name="604" type="ReLU" version="opset1">
			<input>
				<port id="0">
					<dim>1</dim>
					<dim>116</dim>
					<dim>20</dim>
					<dim>20</dim>
				</port>
			</input>
			<output>
				<port id="1" precision="FP16">
					<dim>1</dim>
					<dim>116</dim>
					<dim>20</dim>
					<dim>20</dim>
				</port>
			</output>
		</layer>
		<layer id="330" name="7185171854_const" type="Const" version="opset1">
			<data element_type="f16" offset="184744" shape="116,1,1,3,3" size="2088"/>
			<output>
				<port id="1" precision="FP16">
					<dim>116</dim>
					<dim>1</dim>
					<dim>1</dim>
					<dim>3</dim>
					<dim>3</dim>
				</port>
			</output>
		</layer>
		<layer id="331" name="605" type="GroupConvolution" version="opset1">
			<data dilations="1,1" output_padding="0,0" pads_begin="1,1" pads_end="1,1" strides="1,1"/>
			<input>
				<port id="0">
					<dim>1</dim>
					<dim>116</dim>
					<dim>20</dim>
					<dim>20</dim>
				</port>
				<port id="1">
					<dim>116</dim>
					<dim>1</dim>
					<dim>1</dim>
					<dim>3</dim>
					<dim>3</dim>
				</port>
			</input>
			<output>
				<port id="2" precision="FP16">
					<dim>1</dim>
					<dim>116</dim>
					<dim>20</dim>
					<dim>20</dim>
				</port>
			</output>
		</layer>
		<layer id="332" name="data_add_336533365834886/EltwiseUnsqueeze35574_const" type="Const" version="opset1">
			<data element_type="f16" offset="186832" shape="1,116,1,1" size="232"/>
			<output>
				<port id="1" precision="FP16">
					<dim>1</dim>
					<dim>116</dim>
					<dim>1</dim>
					<dim>1</dim>
				</port>
			</output>
		</layer>
		<layer id="333" name="606/variance/Fused_Add_" type="Add" version="opset1">
			<input>
				<port id="0">
					<dim>1</dim>
					<dim>116</dim>
					<dim>20</dim>
					<dim>20</dim>
				</port>
				<port id="1">
					<dim>1</dim>
					<dim>116</dim>
					<dim>1</dim>
					<dim>1</dim>
				</port>
			</input>
			<output>
				<port id="2" precision="FP16">
					<dim>1</dim>
					<dim>116</dim>
					<dim>20</dim>
					<dim>20</dim>
				</port>
			</output>
		</layer>
		<layer id="334" name="608/mean/Fused_Mul_3696836970_const" type="Const" version="opset1">
			<data element_type="f16" offset="187064" shape="116,116,1,1" size="26912"/>
			<output>
				<port id="1" precision="FP16">
					<dim>116</dim>
					<dim>116</dim>
					<dim>1</dim>
					<dim>1</dim>
				</port>
			</output>
		</layer>
		<layer id="335" name="607" type="Convolution" version="opset1">
			<data dilations="1,1" output_padding="0,0" pads_begin="0,0" pads_end="0,0" strides="1,1"/>
			<input>
				<port id="0">
					<dim>1</dim>
					<dim>116</dim>
					<dim>20</dim>
					<dim>20</dim>
				</port>
				<port id="1">
					<dim>116</dim>
					<dim>116</dim>
					<dim>1</dim>
					<dim>1</dim>
				</port>
			</input>
			<output>
				<port id="2" precision="FP16">
					<dim>1</dim>
					<dim>116</dim>
					<dim>20</dim>
					<dim>20</dim>
				</port>
			</output>
		</layer>
		<layer id="336" name="data_add_336613366634888/EltwiseUnsqueeze35582_const" type="Const" version="opset1">
			<data element_type="f16" offset="213976" shape="1,116,1,1" size="232"/>
			<output>
				<port id="1" precision="FP16">
					<dim>1</dim>
					<dim>116</dim>
					<dim>1</dim>
					<dim>1</dim>
				</port>
			</output>
		</layer>
		<layer id="337" name="608/variance/Fused_Add_" type="Add" version="opset1">
			<input>
				<port id="0">
					<dim>1</dim>
					<dim>116</dim>
					<dim>20</dim>
					<dim>20</dim>
				</port>
				<port id="1">
					<dim>1</dim>
					<dim>116</dim>
					<dim>1</dim>
					<dim>1</dim>
				</port>
			</input>
			<output>
				<port id="2" precision="FP16">
					<dim>1</dim>
					<dim>116</dim>
					<dim>20</dim>
					<dim>20</dim>
				</port>
			</output>
		</layer>
		<layer id="338" name="609" type="ReLU" version="opset1">
			<input>
				<port id="0">
					<dim>1</dim>
					<dim>116</dim>
					<dim>20</dim>
					<dim>20</dim>
				</port>
			</input>
			<output>
				<port id="1" precision="FP16">
					<dim>1</dim>
					<dim>116</dim>
					<dim>20</dim>
					<dim>20</dim>
				</port>
			</output>
		</layer>
		<layer id="339" name="610" type="Concat" version="opset1">
			<data axis="1"/>
			<input>
				<port id="0">
					<dim>1</dim>
					<dim>116</dim>
					<dim>20</dim>
					<dim>20</dim>
				</port>
				<port id="1">
					<dim>1</dim>
					<dim>116</dim>
					<dim>20</dim>
					<dim>20</dim>
				</port>
			</input>
			<output>
				<port id="2" precision="FP16">
					<dim>1</dim>
					<dim>232</dim>
					<dim>20</dim>
					<dim>20</dim>
				</port>
			</output>
		</layer>
		<layer id="340" name="612" type="ShapeOf" version="opset3">
			<data output_type="i64"/>
			<input>
				<port id="0">
					<dim>1</dim>
					<dim>232</dim>
					<dim>20</dim>
					<dim>20</dim>
				</port>
			</input>
			<output>
				<port id="1" precision="I64">
					<dim>4</dim>
				</port>
			</output>
		</layer>
		<layer id="341" name="6132328/Cast_174210_const" type="Const" version="opset1">
			<data element_type="i32" offset="15640" shape="" size="4"/>
			<output>
				<port id="1" precision="I32"/>
			</output>
		</layer>
		<layer id="342" name="6132328/Cast_274212_const" type="Const" version="opset1">
			<data element_type="i64" offset="15644" shape="" size="8"/>
			<output>
				<port id="1" precision="I64"/>
			</output>
		</layer>
		<layer id="343" name="6132328" type="Gather" version="opset1">
			<input>
				<port id="0">
					<dim>4</dim>
				</port>
				<port id="1"/>
				<port id="2"/>
			</input>
			<output>
				<port id="3" precision="I64"/>
			</output>
		</layer>
		<layer id="344" name="626/Dims/Output_0/Data__const" type="Const" version="opset1">
			<data element_type="i64" offset="15644" shape="1" size="8"/>
			<output>
				<port id="1" precision="I64">
					<dim>1</dim>
				</port>
			</output>
		</layer>
		<layer id="345" name="626/Unsqueeze" type="Unsqueeze" version="opset1">
			<input>
				<port id="0"/>
				<port id="1">
					<dim>1</dim>
				</port>
			</input>
			<output>
				<port id="2" precision="I64">
					<dim>1</dim>
				</port>
			</output>
		</layer>
		<layer id="346" name="627/Unsqueeze/Output_0/Data__const" type="Const" version="opset1">
			<data element_type="i64" offset="15652" shape="1" size="8"/>
			<output>
				<port id="1" precision="I64">
					<dim>1</dim>
				</port>
			</output>
		</layer>
		<layer id="347" name="615" type="ShapeOf" version="opset3">
			<data output_type="i64"/>
			<input>
				<port id="0">
					<dim>1</dim>
					<dim>232</dim>
					<dim>20</dim>
					<dim>20</dim>
				</port>
			</input>
			<output>
				<port id="1" precision="I64">
					<dim>4</dim>
				</port>
			</output>
		</layer>
		<layer id="348" name="6162370/Cast_174456_const" type="Const" version="opset1">
			<data element_type="i32" offset="15660" shape="" size="4"/>
			<output>
				<port id="1" precision="I32"/>
			</output>
		</layer>
		<layer id="349" name="6162370/Cast_274458_const" type="Const" version="opset1">
			<data element_type="i64" offset="15644" shape="" size="8"/>
			<output>
				<port id="1" precision="I64"/>
			</output>
		</layer>
		<layer id="350" name="6162370" type="Gather" version="opset1">
			<input>
				<port id="0">
					<dim>4</dim>
				</port>
				<port id="1"/>
				<port id="2"/>
			</input>
			<output>
				<port id="3" precision="I64"/>
			</output>
		</layer>
		<layer id="351" name="623/Output_0/Data__const" type="Const" version="opset1">
			<data element_type="i64" offset="15652" shape="" size="8"/>
			<output>
				<port id="1" precision="I64"/>
			</output>
		</layer>
		<layer id="352" name="624" type="Divide" version="opset1">
			<input>
				<port id="0"/>
				<port id="1"/>
			</input>
			<output>
				<port id="2" precision="I64"/>
			</output>
		</layer>
		<layer id="353" name="628/Dims/Output_0/Data__const" type="Const" version="opset1">
			<data element_type="i64" offset="15644" shape="1" size="8"/>
			<output>
				<port id="1" precision="I64">
					<dim>1</dim>
				</port>
			</output>
		</layer>
		<layer id="354" name="628/Unsqueeze" type="Unsqueeze" version="opset1">
			<input>
				<port id="0"/>
				<port id="1">
					<dim>1</dim>
				</port>
			</input>
			<output>
				<port id="2" precision="I64">
					<dim>1</dim>
				</port>
			</output>
		</layer>
		<layer id="355" name="618" type="ShapeOf" version="opset3">
			<data output_type="i64"/>
			<input>
				<port id="0">
					<dim>1</dim>
					<dim>232</dim>
					<dim>20</dim>
					<dim>20</dim>
				</port>
			</input>
			<output>
				<port id="1" precision="I64">
					<dim>4</dim>
				</port>
			</output>
		</layer>
		<layer id="356" name="6192482/Cast_173946_const" type="Const" version="opset1">
			<data element_type="i32" offset="15664" shape="" size="4"/>
			<output>
				<port id="1" precision="I32"/>
			</output>
		</layer>
		<layer id="357" name="6192482/Cast_273948_const" type="Const" version="opset1">
			<data element_type="i64" offset="15644" shape="" size="8"/>
			<output>
				<port id="1" precision="I64"/>
			</output>
		</layer>
		<layer id="358" name="6192482" type="Gather" version="opset1">
			<input>
				<port id="0">
					<dim>4</dim>
				</port>
				<port id="1"/>
				<port id="2"/>
			</input>
			<output>
				<port id="3" precision="I64"/>
			</output>
		</layer>
		<layer id="359" name="629/Dims/Output_0/Data__const" type="Const" version="opset1">
			<data element_type="i64" offset="15644" shape="1" size="8"/>
			<output>
				<port id="1" precision="I64">
					<dim>1</dim>
				</port>
			</output>
		</layer>
		<layer id="360" name="629/Unsqueeze" type="Unsqueeze" version="opset1">
			<input>
				<port id="0"/>
				<port id="1">
					<dim>1</dim>
				</port>
			</input>
			<output>
				<port id="2" precision="I64">
					<dim>1</dim>
				</port>
			</output>
		</layer>
		<layer id="361" name="621" type="ShapeOf" version="opset3">
			<data output_type="i64"/>
			<input>
				<port id="0">
					<dim>1</dim>
					<dim>232</dim>
					<dim>20</dim>
					<dim>20</dim>
				</port>
			</input>
			<output>
				<port id="1" precision="I64">
					<dim>4</dim>
				</port>
			</output>
		</layer>
		<layer id="362" name="6222322/Cast_173874_const" type="Const" version="opset1">
			<data element_type="i32" offset="15668" shape="" size="4"/>
			<output>
				<port id="1" precision="I32"/>
			</output>
		</layer>
		<layer id="363" name="6222322/Cast_273876_const" type="Const" version="opset1">
			<data element_type="i64" offset="15644" shape="" size="8"/>
			<output>
				<port id="1" precision="I64"/>
			</output>
		</layer>
		<layer id="364" name="6222322" type="Gather" version="opset1">
			<input>
				<port id="0">
					<dim>4</dim>
				</port>
				<port id="1"/>
				<port id="2"/>
			</input>
			<output>
				<port id="3" precision="I64"/>
			</output>
		</layer>
		<layer id="365" name="630/Dims/Output_0/Data__const" type="Const" version="opset1">
			<data element_type="i64" offset="15644" shape="1" size="8"/>
			<output>
				<port id="1" precision="I64">
					<dim>1</dim>
				</port>
			</output>
		</layer>
		<layer id="366" name="630/Unsqueeze" type="Unsqueeze" version="opset1">
			<input>
				<port id="0"/>
				<port id="1">
					<dim>1</dim>
				</port>
			</input>
			<output>
				<port id="2" precision="I64">
					<dim>1</dim>
				</port>
			</output>
		</layer>
		<layer id="367" name="631" type="Concat" version="opset1">
			<data axis="0"/>
			<input>
				<port id="0">
					<dim>1</dim>
				</port>
				<port id="1">
					<dim>1</dim>
				</port>
				<port id="2">
					<dim>1</dim>
				</port>
				<port id="3">
					<dim>1</dim>
				</port>
				<port id="4">
					<dim>1</dim>
				</port>
			</input>
			<output>
				<port id="5" precision="I64">
					<dim>5</dim>
				</port>
			</output>
		</layer>
		<layer id="368" name="632" type="Reshape" version="opset1">
			<data special_zero="True"/>
			<input>
				<port id="0">
					<dim>1</dim>
					<dim>232</dim>
					<dim>20</dim>
					<dim>20</dim>
				</port>
				<port id="1">
					<dim>5</dim>
				</port>
			</input>
			<output>
				<port id="2" precision="FP16">
					<dim>1</dim>
					<dim>2</dim>
					<dim>116</dim>
					<dim>20</dim>
					<dim>20</dim>
				</port>
			</output>
		</layer>
		<layer id="369" name="633/Cast_173846_const" type="Const" version="opset1">
			<data element_type="i64" offset="15672" shape="5" size="40"/>
			<output>
				<port id="1" precision="I64">
					<dim>5</dim>
				</port>
			</output>
		</layer>
		<layer id="370" name="633" type="Transpose" version="opset1">
			<input>
				<port id="0">
					<dim>1</dim>
					<dim>2</dim>
					<dim>116</dim>
					<dim>20</dim>
					<dim>20</dim>
				</port>
				<port id="1">
					<dim>5</dim>
				</port>
			</input>
			<output>
				<port id="2" precision="FP16">
					<dim>1</dim>
					<dim>116</dim>
					<dim>2</dim>
					<dim>20</dim>
					<dim>20</dim>
				</port>
			</output>
		</layer>
		<layer id="371" name="634/Dims/Output_0/Data__const" type="Const" version="opset1">
			<data element_type="i64" offset="15644" shape="1" size="8"/>
			<output>
				<port id="1" precision="I64">
					<dim>1</dim>
				</port>
			</output>
		</layer>
		<layer id="372" name="634/Unsqueeze" type="Unsqueeze" version="opset1">
			<input>
				<port id="0"/>
				<port id="1">
					<dim>1</dim>
				</port>
			</input>
			<output>
				<port id="2" precision="I64">
					<dim>1</dim>
				</port>
			</output>
		</layer>
		<layer id="373" name="635/Dims/Output_0/Data__const" type="Const" version="opset1">
			<data element_type="i64" offset="15644" shape="1" size="8"/>
			<output>
				<port id="1" precision="I64">
					<dim>1</dim>
				</port>
			</output>
		</layer>
		<layer id="374" name="635/Unsqueeze" type="Unsqueeze" version="opset1">
			<input>
				<port id="0"/>
				<port id="1">
					<dim>1</dim>
				</port>
			</input>
			<output>
				<port id="2" precision="I64">
					<dim>1</dim>
				</port>
			</output>
		</layer>
		<layer id="375" name="636/Dims/Output_0/Data__const" type="Const" version="opset1">
			<data element_type="i64" offset="15644" shape="1" size="8"/>
			<output>
				<port id="1" precision="I64">
					<dim>1</dim>
				</port>
			</output>
		</layer>
		<layer id="376" name="636/Unsqueeze" type="Unsqueeze" version="opset1">
			<input>
				<port id="0"/>
				<port id="1">
					<dim>1</dim>
				</port>
			</input>
			<output>
				<port id="2" precision="I64">
					<dim>1</dim>
				</port>
			</output>
		</layer>
		<layer id="377" name="637/Dims/Output_0/Data__const" type="Const" version="opset1">
			<data element_type="i64" offset="15644" shape="1" size="8"/>
			<output>
				<port id="1" precision="I64">
					<dim>1</dim>
				</port>
			</output>
		</layer>
		<layer id="378" name="637/Unsqueeze" type="Unsqueeze" version="opset1">
			<input>
				<port id="0"/>
				<port id="1">
					<dim>1</dim>
				</port>
			</input>
			<output>
				<port id="2" precision="I64">
					<dim>1</dim>
				</port>
			</output>
		</layer>
		<layer id="379" name="638" type="Concat" version="opset1">
			<data axis="0"/>
			<input>
				<port id="0">
					<dim>1</dim>
				</port>
				<port id="1">
					<dim>1</dim>
				</port>
				<port id="2">
					<dim>1</dim>
				</port>
				<port id="3">
					<dim>1</dim>
				</port>
			</input>
			<output>
				<port id="4" precision="I64">
					<dim>4</dim>
				</port>
			</output>
		</layer>
		<layer id="380" name="639" type="Reshape" version="opset1">
			<data special_zero="True"/>
			<input>
				<port id="0">
					<dim>1</dim>
					<dim>116</dim>
					<dim>2</dim>
					<dim>20</dim>
					<dim>20</dim>
				</port>
				<port id="1">
					<dim>4</dim>
				</port>
			</input>
			<output>
				<port id="2" precision="FP16">
					<dim>1</dim>
					<dim>232</dim>
					<dim>20</dim>
					<dim>20</dim>
				</port>
			</output>
		</layer>
		<layer id="381" name="640/VariadicSplit_input_port_1/value/Output_0/Data__const" type="Const" version="opset1">
			<data element_type="i64" offset="15712" shape="" size="8"/>
			<output>
				<port id="1" precision="I64"/>
			</output>
		</layer>
		<layer id="382" name="640/VariadicSplit_input_port_2/value/Output_0/Data__const" type="Const" version="opset1">
			<data element_type="i64" offset="157584" shape="2" size="16"/>
			<output>
				<port id="1" precision="I64">
					<dim>2</dim>
				</port>
			</output>
		</layer>
		<layer id="383" name="640/VariadicSplit" type="VariadicSplit" version="opset1">
			<input>
				<port id="0">
					<dim>1</dim>
					<dim>232</dim>
					<dim>20</dim>
					<dim>20</dim>
				</port>
				<port id="1"/>
				<port id="2">
					<dim>2</dim>
				</port>
			</input>
			<output>
				<port id="3" precision="FP16">
					<dim>1</dim>
					<dim>116</dim>
					<dim>20</dim>
					<dim>20</dim>
				</port>
				<port id="4" precision="FP16">
					<dim>1</dim>
					<dim>116</dim>
					<dim>20</dim>
					<dim>20</dim>
				</port>
			</output>
		</layer>
		<layer id="384" name="643/mean/Fused_Mul_3697236974_const" type="Const" version="opset1">
			<data element_type="f16" offset="214208" shape="116,116,1,1" size="26912"/>
			<output>
				<port id="1" precision="FP16">
					<dim>116</dim>
					<dim>116</dim>
					<dim>1</dim>
					<dim>1</dim>
				</port>
			</output>
		</layer>
		<layer id="385" name="642" type="Convolution" version="opset1">
			<data dilations="1,1" output_padding="0,0" pads_begin="0,0" pads_end="0,0" strides="1,1"/>
			<input>
				<port id="0">
					<dim>1</dim>
					<dim>116</dim>
					<dim>20</dim>
					<dim>20</dim>
				</port>
				<port id="1">
					<dim>116</dim>
					<dim>116</dim>
					<dim>1</dim>
					<dim>1</dim>
				</port>
			</input>
			<output>
				<port id="2" precision="FP16">
					<dim>1</dim>
					<dim>116</dim>
					<dim>20</dim>
					<dim>20</dim>
				</port>
			</output>
		</layer>
		<layer id="386" name="data_add_336693367434890/EltwiseUnsqueeze35590_const" type="Const" version="opset1">
			<data element_type="f16" offset="241120" shape="1,116,1,1" size="232"/>
			<output>
				<port id="1" precision="FP16">
					<dim>1</dim>
					<dim>116</dim>
					<dim>1</dim>
					<dim>1</dim>
				</port>
			</output>
		</layer>
		<layer id="387" name="643/variance/Fused_Add_" type="Add" version="opset1">
			<input>
				<port id="0">
					<dim>1</dim>
					<dim>116</dim>
					<dim>20</dim>
					<dim>20</dim>
				</port>
				<port id="1">
					<dim>1</dim>
					<dim>116</dim>
					<dim>1</dim>
					<dim>1</dim>
				</port>
			</input>
			<output>
				<port id="2" precision="FP16">
					<dim>1</dim>
					<dim>116</dim>
					<dim>20</dim>
					<dim>20</dim>
				</port>
			</output>
		</layer>
		<layer id="388" name="644" type="ReLU" version="opset1">
			<input>
				<port id="0">
					<dim>1</dim>
					<dim>116</dim>
					<dim>20</dim>
					<dim>20</dim>
				</port>
			</input>
			<output>
				<port id="1" precision="FP16">
					<dim>1</dim>
					<dim>116</dim>
					<dim>20</dim>
					<dim>20</dim>
				</port>
			</output>
		</layer>
		<layer id="389" name="7181571818_const" type="Const" version="opset1">
			<data element_type="f16" offset="241352" shape="116,1,1,3,3" size="2088"/>
			<output>
				<port id="1" precision="FP16">
					<dim>116</dim>
					<dim>1</dim>
					<dim>1</dim>
					<dim>3</dim>
					<dim>3</dim>
				</port>
			</output>
		</layer>
		<layer id="390" name="645" type="GroupConvolution" version="opset1">
			<data dilations="1,1" output_padding="0,0" pads_begin="1,1" pads_end="1,1" strides="1,1"/>
			<input>
				<port id="0">
					<dim>1</dim>
					<dim>116</dim>
					<dim>20</dim>
					<dim>20</dim>
				</port>
				<port id="1">
					<dim>116</dim>
					<dim>1</dim>
					<dim>1</dim>
					<dim>3</dim>
					<dim>3</dim>
				</port>
			</input>
			<output>
				<port id="2" precision="FP16">
					<dim>1</dim>
					<dim>116</dim>
					<dim>20</dim>
					<dim>20</dim>
				</port>
			</output>
		</layer>
		<layer id="391" name="data_add_336773368234892/EltwiseUnsqueeze35598_const" type="Const" version="opset1">
			<data element_type="f16" offset="243440" shape="1,116,1,1" size="232"/>
			<output>
				<port id="1" precision="FP16">
					<dim>1</dim>
					<dim>116</dim>
					<dim>1</dim>
					<dim>1</dim>
				</port>
			</output>
		</layer>
		<layer id="392" name="646/variance/Fused_Add_" type="Add" version="opset1">
			<input>
				<port id="0">
					<dim>1</dim>
					<dim>116</dim>
					<dim>20</dim>
					<dim>20</dim>
				</port>
				<port id="1">
					<dim>1</dim>
					<dim>116</dim>
					<dim>1</dim>
					<dim>1</dim>
				</port>
			</input>
			<output>
				<port id="2" precision="FP16">
					<dim>1</dim>
					<dim>116</dim>
					<dim>20</dim>
					<dim>20</dim>
				</port>
			</output>
		</layer>
		<layer id="393" name="648/mean/Fused_Mul_3698036982_const" type="Const" version="opset1">
			<data element_type="f16" offset="243672" shape="116,116,1,1" size="26912"/>
			<output>
				<port id="1" precision="FP16">
					<dim>116</dim>
					<dim>116</dim>
					<dim>1</dim>
					<dim>1</dim>
				</port>
			</output>
		</layer>
		<layer id="394" name="647" type="Convolution" version="opset1">
			<data dilations="1,1" output_padding="0,0" pads_begin="0,0" pads_end="0,0" strides="1,1"/>
			<input>
				<port id="0">
					<dim>1</dim>
					<dim>116</dim>
					<dim>20</dim>
					<dim>20</dim>
				</port>
				<port id="1">
					<dim>116</dim>
					<dim>116</dim>
					<dim>1</dim>
					<dim>1</dim>
				</port>
			</input>
			<output>
				<port id="2" precision="FP16">
					<dim>1</dim>
					<dim>116</dim>
					<dim>20</dim>
					<dim>20</dim>
				</port>
			</output>
		</layer>
		<layer id="395" name="data_add_336853369034894/EltwiseUnsqueeze35606_const" type="Const" version="opset1">
			<data element_type="f16" offset="270584" shape="1,116,1,1" size="232"/>
			<output>
				<port id="1" precision="FP16">
					<dim>1</dim>
					<dim>116</dim>
					<dim>1</dim>
					<dim>1</dim>
				</port>
			</output>
		</layer>
		<layer id="396" name="648/variance/Fused_Add_" type="Add" version="opset1">
			<input>
				<port id="0">
					<dim>1</dim>
					<dim>116</dim>
					<dim>20</dim>
					<dim>20</dim>
				</port>
				<port id="1">
					<dim>1</dim>
					<dim>116</dim>
					<dim>1</dim>
					<dim>1</dim>
				</port>
			</input>
			<output>
				<port id="2" precision="FP16">
					<dim>1</dim>
					<dim>116</dim>
					<dim>20</dim>
					<dim>20</dim>
				</port>
			</output>
		</layer>
		<layer id="397" name="649" type="ReLU" version="opset1">
			<input>
				<port id="0">
					<dim>1</dim>
					<dim>116</dim>
					<dim>20</dim>
					<dim>20</dim>
				</port>
			</input>
			<output>
				<port id="1" precision="FP16">
					<dim>1</dim>
					<dim>116</dim>
					<dim>20</dim>
					<dim>20</dim>
				</port>
			</output>
		</layer>
		<layer id="398" name="650" type="Concat" version="opset1">
			<data axis="1"/>
			<input>
				<port id="0">
					<dim>1</dim>
					<dim>116</dim>
					<dim>20</dim>
					<dim>20</dim>
				</port>
				<port id="1">
					<dim>1</dim>
					<dim>116</dim>
					<dim>20</dim>
					<dim>20</dim>
				</port>
			</input>
			<output>
				<port id="2" precision="FP16">
					<dim>1</dim>
					<dim>232</dim>
					<dim>20</dim>
					<dim>20</dim>
				</port>
			</output>
		</layer>
		<layer id="399" name="652" type="ShapeOf" version="opset3">
			<data output_type="i64"/>
			<input>
				<port id="0">
					<dim>1</dim>
					<dim>232</dim>
					<dim>20</dim>
					<dim>20</dim>
				</port>
			</input>
			<output>
				<port id="1" precision="I64">
					<dim>4</dim>
				</port>
			</output>
		</layer>
		<layer id="400" name="6532498/Cast_173752_const" type="Const" version="opset1">
			<data element_type="i32" offset="15640" shape="" size="4"/>
			<output>
				<port id="1" precision="I32"/>
			</output>
		</layer>
		<layer id="401" name="6532498/Cast_273754_const" type="Const" version="opset1">
			<data element_type="i64" offset="15644" shape="" size="8"/>
			<output>
				<port id="1" precision="I64"/>
			</output>
		</layer>
		<layer id="402" name="6532498" type="Gather" version="opset1">
			<input>
				<port id="0">
					<dim>4</dim>
				</port>
				<port id="1"/>
				<port id="2"/>
			</input>
			<output>
				<port id="3" precision="I64"/>
			</output>
		</layer>
		<layer id="403" name="666/Dims/Output_0/Data__const" type="Const" version="opset1">
			<data element_type="i64" offset="15644" shape="1" size="8"/>
			<output>
				<port id="1" precision="I64">
					<dim>1</dim>
				</port>
			</output>
		</layer>
		<layer id="404" name="666/Unsqueeze" type="Unsqueeze" version="opset1">
			<input>
				<port id="0"/>
				<port id="1">
					<dim>1</dim>
				</port>
			</input>
			<output>
				<port id="2" precision="I64">
					<dim>1</dim>
				</port>
			</output>
		</layer>
		<layer id="405" name="667/Unsqueeze/Output_0/Data__const" type="Const" version="opset1">
			<data element_type="i64" offset="15652" shape="1" size="8"/>
			<output>
				<port id="1" precision="I64">
					<dim>1</dim>
				</port>
			</output>
		</layer>
		<layer id="406" name="655" type="ShapeOf" version="opset3">
			<data output_type="i64"/>
			<input>
				<port id="0">
					<dim>1</dim>
					<dim>232</dim>
					<dim>20</dim>
					<dim>20</dim>
				</port>
			</input>
			<output>
				<port id="1" precision="I64">
					<dim>4</dim>
				</port>
			</output>
		</layer>
		<layer id="407" name="6562358/Cast_174204_const" type="Const" version="opset1">
			<data element_type="i32" offset="15660" shape="" size="4"/>
			<output>
				<port id="1" precision="I32"/>
			</output>
		</layer>
		<layer id="408" name="6562358/Cast_274206_const" type="Const" version="opset1">
			<data element_type="i64" offset="15644" shape="" size="8"/>
			<output>
				<port id="1" precision="I64"/>
			</output>
		</layer>
		<layer id="409" name="6562358" type="Gather" version="opset1">
			<input>
				<port id="0">
					<dim>4</dim>
				</port>
				<port id="1"/>
				<port id="2"/>
			</input>
			<output>
				<port id="3" precision="I64"/>
			</output>
		</layer>
		<layer id="410" name="663/Output_0/Data__const" type="Const" version="opset1">
			<data element_type="i64" offset="15652" shape="" size="8"/>
			<output>
				<port id="1" precision="I64"/>
			</output>
		</layer>
		<layer id="411" name="664" type="Divide" version="opset1">
			<input>
				<port id="0"/>
				<port id="1"/>
			</input>
			<output>
				<port id="2" precision="I64"/>
			</output>
		</layer>
		<layer id="412" name="668/Dims/Output_0/Data__const" type="Const" version="opset1">
			<data element_type="i64" offset="15644" shape="1" size="8"/>
			<output>
				<port id="1" precision="I64">
					<dim>1</dim>
				</port>
			</output>
		</layer>
		<layer id="413" name="668/Unsqueeze" type="Unsqueeze" version="opset1">
			<input>
				<port id="0"/>
				<port id="1">
					<dim>1</dim>
				</port>
			</input>
			<output>
				<port id="2" precision="I64">
					<dim>1</dim>
				</port>
			</output>
		</layer>
		<layer id="414" name="658" type="ShapeOf" version="opset3">
			<data output_type="i64"/>
			<input>
				<port id="0">
					<dim>1</dim>
					<dim>232</dim>
					<dim>20</dim>
					<dim>20</dim>
				</port>
			</input>
			<output>
				<port id="1" precision="I64">
					<dim>4</dim>
				</port>
			</output>
		</layer>
		<layer id="415" name="6592348/Cast_173688_const" type="Const" version="opset1">
			<data element_type="i32" offset="15664" shape="" size="4"/>
			<output>
				<port id="1" precision="I32"/>
			</output>
		</layer>
		<layer id="416" name="6592348/Cast_273690_const" type="Const" version="opset1">
			<data element_type="i64" offset="15644" shape="" size="8"/>
			<output>
				<port id="1" precision="I64"/>
			</output>
		</layer>
		<layer id="417" name="6592348" type="Gather" version="opset1">
			<input>
				<port id="0">
					<dim>4</dim>
				</port>
				<port id="1"/>
				<port id="2"/>
			</input>
			<output>
				<port id="3" precision="I64"/>
			</output>
		</layer>
		<layer id="418" name="669/Dims/Output_0/Data__const" type="Const" version="opset1">
			<data element_type="i64" offset="15644" shape="1" size="8"/>
			<output>
				<port id="1" precision="I64">
					<dim>1</dim>
				</port>
			</output>
		</layer>
		<layer id="419" name="669/Unsqueeze" type="Unsqueeze" version="opset1">
			<input>
				<port id="0"/>
				<port id="1">
					<dim>1</dim>
				</port>
			</input>
			<output>
				<port id="2" precision="I64">
					<dim>1</dim>
				</port>
			</output>
		</layer>
		<layer id="420" name="661" type="ShapeOf" version="opset3">
			<data output_type="i64"/>
			<input>
				<port id="0">
					<dim>1</dim>
					<dim>232</dim>
					<dim>20</dim>
					<dim>20</dim>
				</port>
			</input>
			<output>
				<port id="1" precision="I64">
					<dim>4</dim>
				</port>
			</output>
		</layer>
		<layer id="421" name="6622344/Cast_173788_const" type="Const" version="opset1">
			<data element_type="i32" offset="15668" shape="" size="4"/>
			<output>
				<port id="1" precision="I32"/>
			</output>
		</layer>
		<layer id="422" name="6622344/Cast_273790_const" type="Const" version="opset1">
			<data element_type="i64" offset="15644" shape="" size="8"/>
			<output>
				<port id="1" precision="I64"/>
			</output>
		</layer>
		<layer id="423" name="6622344" type="Gather" version="opset1">
			<input>
				<port id="0">
					<dim>4</dim>
				</port>
				<port id="1"/>
				<port id="2"/>
			</input>
			<output>
				<port id="3" precision="I64"/>
			</output>
		</layer>
		<layer id="424" name="670/Dims/Output_0/Data__const" type="Const" version="opset1">
			<data element_type="i64" offset="15644" shape="1" size="8"/>
			<output>
				<port id="1" precision="I64">
					<dim>1</dim>
				</port>
			</output>
		</layer>
		<layer id="425" name="670/Unsqueeze" type="Unsqueeze" version="opset1">
			<input>
				<port id="0"/>
				<port id="1">
					<dim>1</dim>
				</port>
			</input>
			<output>
				<port id="2" precision="I64">
					<dim>1</dim>
				</port>
			</output>
		</layer>
		<layer id="426" name="671" type="Concat" version="opset1">
			<data axis="0"/>
			<input>
				<port id="0">
					<dim>1</dim>
				</port>
				<port id="1">
					<dim>1</dim>
				</port>
				<port id="2">
					<dim>1</dim>
				</port>
				<port id="3">
					<dim>1</dim>
				</port>
				<port id="4">
					<dim>1</dim>
				</port>
			</input>
			<output>
				<port id="5" precision="I64">
					<dim>5</dim>
				</port>
			</output>
		</layer>
		<layer id="427" name="672" type="Reshape" version="opset1">
			<data special_zero="True"/>
			<input>
				<port id="0">
					<dim>1</dim>
					<dim>232</dim>
					<dim>20</dim>
					<dim>20</dim>
				</port>
				<port id="1">
					<dim>5</dim>
				</port>
			</input>
			<output>
				<port id="2" precision="FP16">
					<dim>1</dim>
					<dim>2</dim>
					<dim>116</dim>
					<dim>20</dim>
					<dim>20</dim>
				</port>
			</output>
		</layer>
		<layer id="428" name="673/Cast_174342_const" type="Const" version="opset1">
			<data element_type="i64" offset="15672" shape="5" size="40"/>
			<output>
				<port id="1" precision="I64">
					<dim>5</dim>
				</port>
			</output>
		</layer>
		<layer id="429" name="673" type="Transpose" version="opset1">
			<input>
				<port id="0">
					<dim>1</dim>
					<dim>2</dim>
					<dim>116</dim>
					<dim>20</dim>
					<dim>20</dim>
				</port>
				<port id="1">
					<dim>5</dim>
				</port>
			</input>
			<output>
				<port id="2" precision="FP16">
					<dim>1</dim>
					<dim>116</dim>
					<dim>2</dim>
					<dim>20</dim>
					<dim>20</dim>
				</port>
			</output>
		</layer>
		<layer id="430" name="674/Dims/Output_0/Data__const" type="Const" version="opset1">
			<data element_type="i64" offset="15644" shape="1" size="8"/>
			<output>
				<port id="1" precision="I64">
					<dim>1</dim>
				</port>
			</output>
		</layer>
		<layer id="431" name="674/Unsqueeze" type="Unsqueeze" version="opset1">
			<input>
				<port id="0"/>
				<port id="1">
					<dim>1</dim>
				</port>
			</input>
			<output>
				<port id="2" precision="I64">
					<dim>1</dim>
				</port>
			</output>
		</layer>
		<layer id="432" name="675/Dims/Output_0/Data__const" type="Const" version="opset1">
			<data element_type="i64" offset="15644" shape="1" size="8"/>
			<output>
				<port id="1" precision="I64">
					<dim>1</dim>
				</port>
			</output>
		</layer>
		<layer id="433" name="675/Unsqueeze" type="Unsqueeze" version="opset1">
			<input>
				<port id="0"/>
				<port id="1">
					<dim>1</dim>
				</port>
			</input>
			<output>
				<port id="2" precision="I64">
					<dim>1</dim>
				</port>
			</output>
		</layer>
		<layer id="434" name="676/Dims/Output_0/Data__const" type="Const" version="opset1">
			<data element_type="i64" offset="15644" shape="1" size="8"/>
			<output>
				<port id="1" precision="I64">
					<dim>1</dim>
				</port>
			</output>
		</layer>
		<layer id="435" name="676/Unsqueeze" type="Unsqueeze" version="opset1">
			<input>
				<port id="0"/>
				<port id="1">
					<dim>1</dim>
				</port>
			</input>
			<output>
				<port id="2" precision="I64">
					<dim>1</dim>
				</port>
			</output>
		</layer>
		<layer id="436" name="677/Dims/Output_0/Data__const" type="Const" version="opset1">
			<data element_type="i64" offset="15644" shape="1" size="8"/>
			<output>
				<port id="1" precision="I64">
					<dim>1</dim>
				</port>
			</output>
		</layer>
		<layer id="437" name="677/Unsqueeze" type="Unsqueeze" version="opset1">
			<input>
				<port id="0"/>
				<port id="1">
					<dim>1</dim>
				</port>
			</input>
			<output>
				<port id="2" precision="I64">
					<dim>1</dim>
				</port>
			</output>
		</layer>
		<layer id="438" name="678" type="Concat" version="opset1">
			<data axis="0"/>
			<input>
				<port id="0">
					<dim>1</dim>
				</port>
				<port id="1">
					<dim>1</dim>
				</port>
				<port id="2">
					<dim>1</dim>
				</port>
				<port id="3">
					<dim>1</dim>
				</port>
			</input>
			<output>
				<port id="4" precision="I64">
					<dim>4</dim>
				</port>
			</output>
		</layer>
		<layer id="439" name="679" type="Reshape" version="opset1">
			<data special_zero="True"/>
			<input>
				<port id="0">
					<dim>1</dim>
					<dim>116</dim>
					<dim>2</dim>
					<dim>20</dim>
					<dim>20</dim>
				</port>
				<port id="1">
					<dim>4</dim>
				</port>
			</input>
			<output>
				<port id="2" precision="FP16">
					<dim>1</dim>
					<dim>232</dim>
					<dim>20</dim>
					<dim>20</dim>
				</port>
			</output>
		</layer>
		<layer id="440" name="680/VariadicSplit_input_port_1/value/Output_0/Data__const" type="Const" version="opset1">
			<data element_type="i64" offset="15712" shape="" size="8"/>
			<output>
				<port id="1" precision="I64"/>
			</output>
		</layer>
		<layer id="441" name="680/VariadicSplit_input_port_2/value/Output_0/Data__const" type="Const" version="opset1">
			<data element_type="i64" offset="157584" shape="2" size="16"/>
			<output>
				<port id="1" precision="I64">
					<dim>2</dim>
				</port>
			</output>
		</layer>
		<layer id="442" name="680/VariadicSplit" type="VariadicSplit" version="opset1">
			<input>
				<port id="0">
					<dim>1</dim>
					<dim>232</dim>
					<dim>20</dim>
					<dim>20</dim>
				</port>
				<port id="1"/>
				<port id="2">
					<dim>2</dim>
				</port>
			</input>
			<output>
				<port id="3" precision="FP16">
					<dim>1</dim>
					<dim>116</dim>
					<dim>20</dim>
					<dim>20</dim>
				</port>
				<port id="4" precision="FP16">
					<dim>1</dim>
					<dim>116</dim>
					<dim>20</dim>
					<dim>20</dim>
				</port>
			</output>
		</layer>
		<layer id="443" name="683/mean/Fused_Mul_3698436986_const" type="Const" version="opset1">
			<data element_type="f16" offset="270816" shape="116,116,1,1" size="26912"/>
			<output>
				<port id="1" precision="FP16">
					<dim>116</dim>
					<dim>116</dim>
					<dim>1</dim>
					<dim>1</dim>
				</port>
			</output>
		</layer>
		<layer id="444" name="682" type="Convolution" version="opset1">
			<data dilations="1,1" output_padding="0,0" pads_begin="0,0" pads_end="0,0" strides="1,1"/>
			<input>
				<port id="0">
					<dim>1</dim>
					<dim>116</dim>
					<dim>20</dim>
					<dim>20</dim>
				</port>
				<port id="1">
					<dim>116</dim>
					<dim>116</dim>
					<dim>1</dim>
					<dim>1</dim>
				</port>
			</input>
			<output>
				<port id="2" precision="FP16">
					<dim>1</dim>
					<dim>116</dim>
					<dim>20</dim>
					<dim>20</dim>
				</port>
			</output>
		</layer>
		<layer id="445" name="data_add_336933369834896/EltwiseUnsqueeze35614_const" type="Const" version="opset1">
			<data element_type="f16" offset="297728" shape="1,116,1,1" size="232"/>
			<output>
				<port id="1" precision="FP16">
					<dim>1</dim>
					<dim>116</dim>
					<dim>1</dim>
					<dim>1</dim>
				</port>
			</output>
		</layer>
		<layer id="446" name="683/variance/Fused_Add_" type="Add" version="opset1">
			<input>
				<port id="0">
					<dim>1</dim>
					<dim>116</dim>
					<dim>20</dim>
					<dim>20</dim>
				</port>
				<port id="1">
					<dim>1</dim>
					<dim>116</dim>
					<dim>1</dim>
					<dim>1</dim>
				</port>
			</input>
			<output>
				<port id="2" precision="FP16">
					<dim>1</dim>
					<dim>116</dim>
					<dim>20</dim>
					<dim>20</dim>
				</port>
			</output>
		</layer>
		<layer id="447" name="684" type="ReLU" version="opset1">
			<input>
				<port id="0">
					<dim>1</dim>
					<dim>116</dim>
					<dim>20</dim>
					<dim>20</dim>
				</port>
			</input>
			<output>
				<port id="1" precision="FP16">
					<dim>1</dim>
					<dim>116</dim>
					<dim>20</dim>
					<dim>20</dim>
				</port>
			</output>
		</layer>
		<layer id="448" name="7180771810_const" type="Const" version="opset1">
			<data element_type="f16" offset="297960" shape="116,1,1,3,3" size="2088"/>
			<output>
				<port id="1" precision="FP16">
					<dim>116</dim>
					<dim>1</dim>
					<dim>1</dim>
					<dim>3</dim>
					<dim>3</dim>
				</port>
			</output>
		</layer>
		<layer id="449" name="685" type="GroupConvolution" version="opset1">
			<data dilations="1,1" output_padding="0,0" pads_begin="1,1" pads_end="1,1" strides="1,1"/>
			<input>
				<port id="0">
					<dim>1</dim>
					<dim>116</dim>
					<dim>20</dim>
					<dim>20</dim>
				</port>
				<port id="1">
					<dim>116</dim>
					<dim>1</dim>
					<dim>1</dim>
					<dim>3</dim>
					<dim>3</dim>
				</port>
			</input>
			<output>
				<port id="2" precision="FP16">
					<dim>1</dim>
					<dim>116</dim>
					<dim>20</dim>
					<dim>20</dim>
				</port>
			</output>
		</layer>
		<layer id="450" name="data_add_337013370634898/EltwiseUnsqueeze35622_const" type="Const" version="opset1">
			<data element_type="f16" offset="300048" shape="1,116,1,1" size="232"/>
			<output>
				<port id="1" precision="FP16">
					<dim>1</dim>
					<dim>116</dim>
					<dim>1</dim>
					<dim>1</dim>
				</port>
			</output>
		</layer>
		<layer id="451" name="686/variance/Fused_Add_" type="Add" version="opset1">
			<input>
				<port id="0">
					<dim>1</dim>
					<dim>116</dim>
					<dim>20</dim>
					<dim>20</dim>
				</port>
				<port id="1">
					<dim>1</dim>
					<dim>116</dim>
					<dim>1</dim>
					<dim>1</dim>
				</port>
			</input>
			<output>
				<port id="2" precision="FP16">
					<dim>1</dim>
					<dim>116</dim>
					<dim>20</dim>
					<dim>20</dim>
				</port>
			</output>
		</layer>
		<layer id="452" name="688/mean/Fused_Mul_3699236994_const" type="Const" version="opset1">
			<data element_type="f16" offset="300280" shape="116,116,1,1" size="26912"/>
			<output>
				<port id="1" precision="FP16">
					<dim>116</dim>
					<dim>116</dim>
					<dim>1</dim>
					<dim>1</dim>
				</port>
			</output>
		</layer>
		<layer id="453" name="687" type="Convolution" version="opset1">
			<data dilations="1,1" output_padding="0,0" pads_begin="0,0" pads_end="0,0" strides="1,1"/>
			<input>
				<port id="0">
					<dim>1</dim>
					<dim>116</dim>
					<dim>20</dim>
					<dim>20</dim>
				</port>
				<port id="1">
					<dim>116</dim>
					<dim>116</dim>
					<dim>1</dim>
					<dim>1</dim>
				</port>
			</input>
			<output>
				<port id="2" precision="FP16">
					<dim>1</dim>
					<dim>116</dim>
					<dim>20</dim>
					<dim>20</dim>
				</port>
			</output>
		</layer>
		<layer id="454" name="data_add_337093371434900/EltwiseUnsqueeze35630_const" type="Const" version="opset1">
			<data element_type="f16" offset="327192" shape="1,116,1,1" size="232"/>
			<output>
				<port id="1" precision="FP16">
					<dim>1</dim>
					<dim>116</dim>
					<dim>1</dim>
					<dim>1</dim>
				</port>
			</output>
		</layer>
		<layer id="455" name="688/variance/Fused_Add_" type="Add" version="opset1">
			<input>
				<port id="0">
					<dim>1</dim>
					<dim>116</dim>
					<dim>20</dim>
					<dim>20</dim>
				</port>
				<port id="1">
					<dim>1</dim>
					<dim>116</dim>
					<dim>1</dim>
					<dim>1</dim>
				</port>
			</input>
			<output>
				<port id="2" precision="FP16">
					<dim>1</dim>
					<dim>116</dim>
					<dim>20</dim>
					<dim>20</dim>
				</port>
			</output>
		</layer>
		<layer id="456" name="689" type="ReLU" version="opset1">
			<input>
				<port id="0">
					<dim>1</dim>
					<dim>116</dim>
					<dim>20</dim>
					<dim>20</dim>
				</port>
			</input>
			<output>
				<port id="1" precision="FP16">
					<dim>1</dim>
					<dim>116</dim>
					<dim>20</dim>
					<dim>20</dim>
				</port>
			</output>
		</layer>
		<layer id="457" name="690" type="Concat" version="opset1">
			<data axis="1"/>
			<input>
				<port id="0">
					<dim>1</dim>
					<dim>116</dim>
					<dim>20</dim>
					<dim>20</dim>
				</port>
				<port id="1">
					<dim>1</dim>
					<dim>116</dim>
					<dim>20</dim>
					<dim>20</dim>
				</port>
			</input>
			<output>
				<port id="2" precision="FP16">
					<dim>1</dim>
					<dim>232</dim>
					<dim>20</dim>
					<dim>20</dim>
				</port>
			</output>
		</layer>
		<layer id="458" name="692" type="ShapeOf" version="opset3">
			<data output_type="i64"/>
			<input>
				<port id="0">
					<dim>1</dim>
					<dim>232</dim>
					<dim>20</dim>
					<dim>20</dim>
				</port>
			</input>
			<output>
				<port id="1" precision="I64">
					<dim>4</dim>
				</port>
			</output>
		</layer>
		<layer id="459" name="6932578/Cast_173712_const" type="Const" version="opset1">
			<data element_type="i32" offset="15640" shape="" size="4"/>
			<output>
				<port id="1" precision="I32"/>
			</output>
		</layer>
		<layer id="460" name="6932578/Cast_273714_const" type="Const" version="opset1">
			<data element_type="i64" offset="15644" shape="" size="8"/>
			<output>
				<port id="1" precision="I64"/>
			</output>
		</layer>
		<layer id="461" name="6932578" type="Gather" version="opset1">
			<input>
				<port id="0">
					<dim>4</dim>
				</port>
				<port id="1"/>
				<port id="2"/>
			</input>
			<output>
				<port id="3" precision="I64"/>
			</output>
		</layer>
		<layer id="462" name="706/Dims/Output_0/Data__const" type="Const" version="opset1">
			<data element_type="i64" offset="15644" shape="1" size="8"/>
			<output>
				<port id="1" precision="I64">
					<dim>1</dim>
				</port>
			</output>
		</layer>
		<layer id="463" name="706/Unsqueeze" type="Unsqueeze" version="opset1">
			<input>
				<port id="0"/>
				<port id="1">
					<dim>1</dim>
				</port>
			</input>
			<output>
				<port id="2" precision="I64">
					<dim>1</dim>
				</port>
			</output>
		</layer>
		<layer id="464" name="707/Unsqueeze/Output_0/Data__const" type="Const" version="opset1">
			<data element_type="i64" offset="15652" shape="1" size="8"/>
			<output>
				<port id="1" precision="I64">
					<dim>1</dim>
				</port>
			</output>
		</layer>
…
		<edge from-layer="1455" from-port="1" to-layer="1456" to-port="2"/>
		<edge from-layer="1449" from-port="1" to-layer="1457" to-port="0"/>
		<edge from-layer="1456" from-port="3" to-layer="1457" to-port="1"/>
		<edge from-layer="1457" from-port="2" to-layer="1458" to-port="0"/>
		<edge from-layer="1458" from-port="1" to-layer="1460" to-port="0"/>
		<edge from-layer="1459" from-port="1" to-layer="1460" to-port="1"/>
		<edge from-layer="1460" from-port="2" to-layer="1462" to-port="0"/>
		<edge from-layer="1461" from-port="1" to-layer="1462" to-port="1"/>
		<edge from-layer="1462" from-port="2" to-layer="1464" to-port="0"/>
		<edge from-layer="1463" from-port="1" to-layer="1464" to-port="1"/>
		<edge from-layer="1464" from-port="2" to-layer="1465" to-port="0"/>
		<edge from-layer="1440" from-port="2" to-layer="1466" to-port="0"/>
		<edge from-layer="1465" from-port="1" to-layer="1466" to-port="1"/>
		<edge from-layer="1466" from-port="2" to-layer="1467" to-port="0"/>
		<edge from-layer="1097" from-port="3" to-layer="1469" to-port="0"/>
		<edge from-layer="1469" from-port="1" to-layer="1470" to-port="0"/>
		<edge from-layer="1468" from-port="1" to-layer="1472" to-port="0"/>
		<edge from-layer="1470" from-port="1" to-layer="1472" to-port="1"/>
		<edge from-layer="1471" from-port="1" to-layer="1472" to-port="2"/>
		<edge from-layer="1472" from-port="3" to-layer="1475" to-port="0"/>
		<edge from-layer="1473" from-port="1" to-layer="1475" to-port="1"/>
		<edge from-layer="1474" from-port="1" to-layer="1475" to-port="2"/>
		<edge from-layer="1010" from-port="2" to-layer="1477" to-port="0"/>
		<edge from-layer="1476" from-port="1" to-layer="1477" to-port="1"/>
		<edge from-layer="1477" from-port="2" to-layer="1478" to-port="0"/>
		<edge from-layer="1478" from-port="1" to-layer="1480" to-port="0"/>
		<edge from-layer="1479" from-port="1" to-layer="1480" to-port="1"/>
		<edge from-layer="1480" from-port="2" to-layer="1482" to-port="0"/>
		<edge from-layer="1481" from-port="1" to-layer="1482" to-port="1"/>
		<edge from-layer="1482" from-port="2" to-layer="1483" to-port="0"/>
		<edge from-layer="1483" from-port="1" to-layer="1485" to-port="0"/>
		<edge from-layer="1484" from-port="1" to-layer="1485" to-port="1"/>
		<edge from-layer="1485" from-port="2" to-layer="1486" to-port="0"/>
		<edge from-layer="1486" from-port="1" to-layer="1488" to-port="0"/>
		<edge from-layer="1487" from-port="1" to-layer="1488" to-port="1"/>
		<edge from-layer="1488" from-port="2" to-layer="1490" to-port="0"/>
		<edge from-layer="1489" from-port="1" to-layer="1490" to-port="1"/>
		<edge from-layer="1490" from-port="2" to-layer="1491" to-port="0"/>
		<edge from-layer="1491" from-port="1" to-layer="1493" to-port="0"/>
		<edge from-layer="1492" from-port="1" to-layer="1493" to-port="1"/>
		<edge from-layer="1493" from-port="2" to-layer="1494" to-port="0"/>
		<edge from-layer="1494" from-port="1" to-layer="1496" to-port="0"/>
		<edge from-layer="1495" from-port="1" to-layer="1496" to-port="1"/>
		<edge from-layer="1496" from-port="2" to-layer="1498" to-port="0"/>
		<edge from-layer="1497" from-port="1" to-layer="1498" to-port="1"/>
		<edge from-layer="1498" from-port="2" to-layer="1499" to-port="0"/>
		<edge from-layer="1499" from-port="1" to-layer="1501" to-port="0"/>
		<edge from-layer="1500" from-port="1" to-layer="1501" to-port="1"/>
		<edge from-layer="1501" from-port="2" to-layer="1502" to-port="0"/>
		<edge from-layer="1502" from-port="1" to-layer="1504" to-port="0"/>
		<edge from-layer="1503" from-port="1" to-layer="1504" to-port="1"/>
		<edge from-layer="1504" from-port="2" to-layer="1506" to-port="0"/>
		<edge from-layer="1505" from-port="1" to-layer="1506" to-port="1"/>
		<edge from-layer="1506" from-port="2" to-layer="1507" to-port="0"/>
		<edge from-layer="1507" from-port="1" to-layer="1509" to-port="0"/>
		<edge from-layer="1508" from-port="1" to-layer="1509" to-port="1"/>
		<edge from-layer="1509" from-port="2" to-layer="1511" to-port="0"/>
		<edge from-layer="1510" from-port="1" to-layer="1511" to-port="1"/>
		<edge from-layer="1511" from-port="2" to-layer="1512" to-port="0"/>
		<edge from-layer="1512" from-port="1" to-layer="1515" to-port="0"/>
		<edge from-layer="1513" from-port="1" to-layer="1515" to-port="1"/>
		<edge from-layer="1514" from-port="1" to-layer="1515" to-port="2"/>
		<edge from-layer="1515" from-port="3" to-layer="1517" to-port="0"/>
		<edge from-layer="1516" from-port="1" to-layer="1517" to-port="1"/>
		<edge from-layer="1517" from-port="2" to-layer="1519" to-port="0"/>
		<edge from-layer="1518" from-port="1" to-layer="1519" to-port="1"/>
		<edge from-layer="1469" from-port="1" to-layer="1520" to-port="0"/>
		<edge from-layer="1519" from-port="2" to-layer="1522" to-port="0"/>
		<edge from-layer="1520" from-port="1" to-layer="1522" to-port="1"/>
		<edge from-layer="1521" from-port="1" to-layer="1522" to-port="2"/>
		<edge from-layer="1522" from-port="3" to-layer="1525" to-port="0"/>
		<edge from-layer="1523" from-port="1" to-layer="1525" to-port="1"/>
		<edge from-layer="1524" from-port="1" to-layer="1525" to-port="2"/>
		<edge from-layer="1475" from-port="3" to-layer="1526" to-port="0"/>
		<edge from-layer="1525" from-port="3" to-layer="1526" to-port="1"/>
		<edge from-layer="1526" from-port="2" to-layer="1527" to-port="0"/>
		<edge from-layer="1527" from-port="1" to-layer="1529" to-port="0"/>
		<edge from-layer="1528" from-port="1" to-layer="1529" to-port="1"/>
		<edge from-layer="1472" from-port="3" to-layer="1532" to-port="0"/>
		<edge from-layer="1530" from-port="1" to-layer="1532" to-port="1"/>
		<edge from-layer="1531" from-port="1" to-layer="1532" to-port="2"/>
		<edge from-layer="1522" from-port="3" to-layer="1535" to-port="0"/>
		<edge from-layer="1533" from-port="1" to-layer="1535" to-port="1"/>
		<edge from-layer="1534" from-port="1" to-layer="1535" to-port="2"/>
		<edge from-layer="1532" from-port="3" to-layer="1536" to-port="0"/>
		<edge from-layer="1535" from-port="3" to-layer="1536" to-port="1"/>
		<edge from-layer="1536" from-port="2" to-layer="1537" to-port="0"/>
		<edge from-layer="1537" from-port="1" to-layer="1539" to-port="0"/>
		<edge from-layer="1538" from-port="1" to-layer="1539" to-port="1"/>
		<edge from-layer="1472" from-port="3" to-layer="1542" to-port="0"/>
		<edge from-layer="1540" from-port="1" to-layer="1542" to-port="1"/>
		<edge from-layer="1541" from-port="1" to-layer="1542" to-port="2"/>
		<edge from-layer="1522" from-port="3" to-layer="1545" to-port="0"/>
		<edge from-layer="1543" from-port="1" to-layer="1545" to-port="1"/>
		<edge from-layer="1544" from-port="1" to-layer="1545" to-port="2"/>
		<edge from-layer="1542" from-port="3" to-layer="1546" to-port="0"/>
		<edge from-layer="1545" from-port="3" to-layer="1546" to-port="1"/>
		<edge from-layer="1546" from-port="2" to-layer="1547" to-port="0"/>
		<edge from-layer="1547" from-port="1" to-layer="1549" to-port="0"/>
		<edge from-layer="1548" from-port="1" to-layer="1549" to-port="1"/>
		<edge from-layer="1472" from-port="3" to-layer="1552" to-port="0"/>
		<edge from-layer="1550" from-port="1" to-layer="1552" to-port="1"/>
		<edge from-layer="1551" from-port="1" to-layer="1552" to-port="2"/>
		<edge from-layer="1522" from-port="3" to-layer="1555" to-port="0"/>
		<edge from-layer="1553" from-port="1" to-layer="1555" to-port="1"/>
		<edge from-layer="1554" from-port="1" to-layer="1555" to-port="2"/>
		<edge from-layer="1552" from-port="3" to-layer="1556" to-port="0"/>
		<edge from-layer="1555" from-port="3" to-layer="1556" to-port="1"/>
		<edge from-layer="1556" from-port="2" to-layer="1557" to-port="0"/>
		<edge from-layer="1557" from-port="1" to-layer="1559" to-port="0"/>
		<edge from-layer="1558" from-port="1" to-layer="1559" to-port="1"/>
		<edge from-layer="1529" from-port="2" to-layer="1560" to-port="0"/>
		<edge from-layer="1539" from-port="2" to-layer="1560" to-port="1"/>
		<edge from-layer="1549" from-port="2" to-layer="1560" to-port="2"/>
		<edge from-layer="1559" from-port="2" to-layer="1560" to-port="3"/>
		<edge from-layer="1189" from-port="3" to-layer="1562" to-port="0"/>
		<edge from-layer="1562" from-port="1" to-layer="1563" to-port="0"/>
		<edge from-layer="1561" from-port="1" to-layer="1565" to-port="0"/>
		<edge from-layer="1563" from-port="1" to-layer="1565" to-port="1"/>
		<edge from-layer="1564" from-port="1" to-layer="1565" to-port="2"/>
		<edge from-layer="1565" from-port="3" to-layer="1568" to-port="0"/>
		<edge from-layer="1566" from-port="1" to-layer="1568" to-port="1"/>
		<edge from-layer="1567" from-port="1" to-layer="1568" to-port="2"/>
		<edge from-layer="1102" from-port="2" to-layer="1570" to-port="0"/>
		<edge from-layer="1569" from-port="1" to-layer="1570" to-port="1"/>
		<edge from-layer="1570" from-port="2" to-layer="1571" to-port="0"/>
		<edge from-layer="1571" from-port="1" to-layer="1573" to-port="0"/>
		<edge from-layer="1572" from-port="1" to-layer="1573" to-port="1"/>
		<edge from-layer="1573" from-port="2" to-layer="1575" to-port="0"/>
		<edge from-layer="1574" from-port="1" to-layer="1575" to-port="1"/>
		<edge from-layer="1575" from-port="2" to-layer="1576" to-port="0"/>
		<edge from-layer="1576" from-port="1" to-layer="1578" to-port="0"/>
		<edge from-layer="1577" from-port="1" to-layer="1578" to-port="1"/>
		<edge from-layer="1578" from-port="2" to-layer="1579" to-port="0"/>
		<edge from-layer="1579" from-port="1" to-layer="1581" to-port="0"/>
		<edge from-layer="1580" from-port="1" to-layer="1581" to-port="1"/>
		<edge from-layer="1581" from-port="2" to-layer="1583" to-port="0"/>
		<edge from-layer="1582" from-port="1" to-layer="1583" to-port="1"/>
		<edge from-layer="1583" from-port="2" to-layer="1584" to-port="0"/>
		<edge from-layer="1584" from-port="1" to-layer="1586" to-port="0"/>
		<edge from-layer="1585" from-port="1" to-layer="1586" to-port="1"/>
		<edge from-layer="1586" from-port="2" to-layer="1587" to-port="0"/>
		<edge from-layer="1587" from-port="1" to-layer="1589" to-port="0"/>
		<edge from-layer="1588" from-port="1" to-layer="1589" to-port="1"/>
		<edge from-layer="1589" from-port="2" to-layer="1591" to-port="0"/>
		<edge from-layer="1590" from-port="1" to-layer="1591" to-port="1"/>
		<edge from-layer="1591" from-port="2" to-layer="1592" to-port="0"/>
		<edge from-layer="1592" from-port="1" to-layer="1594" to-port="0"/>
		<edge from-layer="1593" from-port="1" to-layer="1594" to-port="1"/>
		<edge from-layer="1594" from-port="2" to-layer="1595" to-port="0"/>
		<edge from-layer="1595" from-port="1" to-layer="1597" to-port="0"/>
		<edge from-layer="1596" from-port="1" to-layer="1597" to-port="1"/>
		<edge from-layer="1597" from-port="2" to-layer="1599" to-port="0"/>
		<edge from-layer="1598" from-port="1" to-layer="1599" to-port="1"/>
		<edge from-layer="1599" from-port="2" to-layer="1600" to-port="0"/>
		<edge from-layer="1600" from-port="1" to-layer="1602" to-port="0"/>
		<edge from-layer="1601" from-port="1" to-layer="1602" to-port="1"/>
		<edge from-layer="1602" from-port="2" to-layer="1604" to-port="0"/>
		<edge from-layer="1603" from-port="1" to-layer="1604" to-port="1"/>
		<edge from-layer="1604" from-port="2" to-layer="1605" to-port="0"/>
		<edge from-layer="1605" from-port="1" to-layer="1608" to-port="0"/>
		<edge from-layer="1606" from-port="1" to-layer="1608" to-port="1"/>
		<edge from-layer="1607" from-port="1" to-layer="1608" to-port="2"/>
		<edge from-layer="1608" from-port="3" to-layer="1610" to-port="0"/>
		<edge from-layer="1609" from-port="1" to-layer="1610" to-port="1"/>
		<edge from-layer="1610" from-port="2" to-layer="1612" to-port="0"/>
		<edge from-layer="1611" from-port="1" to-layer="1612" to-port="1"/>
		<edge from-layer="1562" from-port="1" to-layer="1613" to-port="0"/>
		<edge from-layer="1612" from-port="2" to-layer="1615" to-port="0"/>
		<edge from-layer="1613" from-port="1" to-layer="1615" to-port="1"/>
		<edge from-layer="1614" from-port="1" to-layer="1615" to-port="2"/>
		<edge from-layer="1615" from-port="3" to-layer="1618" to-port="0"/>
		<edge from-layer="1616" from-port="1" to-layer="1618" to-port="1"/>
		<edge from-layer="1617" from-port="1" to-layer="1618" to-port="2"/>
		<edge from-layer="1568" from-port="3" to-layer="1619" to-port="0"/>
		<edge from-layer="1618" from-port="3" to-layer="1619" to-port="1"/>
		<edge from-layer="1619" from-port="2" to-layer="1620" to-port="0"/>
		<edge from-layer="1620" from-port="1" to-layer="1622" to-port="0"/>
		<edge from-layer="1621" from-port="1" to-layer="1622" to-port="1"/>
		<edge from-layer="1565" from-port="3" to-layer="1625" to-port="0"/>
		<edge from-layer="1623" from-port="1" to-layer="1625" to-port="1"/>
		<edge from-layer="1624" from-port="1" to-layer="1625" to-port="2"/>
		<edge from-layer="1615" from-port="3" to-layer="1628" to-port="0"/>
		<edge from-layer="1626" from-port="1" to-layer="1628" to-port="1"/>
		<edge from-layer="1627" from-port="1" to-layer="1628" to-port="2"/>
		<edge from-layer="1625" from-port="3" to-layer="1629" to-port="0"/>
		<edge from-layer="1628" from-port="3" to-layer="1629" to-port="1"/>
		<edge from-layer="1629" from-port="2" to-layer="1630" to-port="0"/>
		<edge from-layer="1630" from-port="1" to-layer="1632" to-port="0"/>
		<edge from-layer="1631" from-port="1" to-layer="1632" to-port="1"/>
		<edge from-layer="1565" from-port="3" to-layer="1635" to-port="0"/>
		<edge from-layer="1633" from-port="1" to-layer="1635" to-port="1"/>
		<edge from-layer="1634" from-port="1" to-layer="1635" to-port="2"/>
		<edge from-layer="1615" from-port="3" to-layer="1638" to-port="0"/>
		<edge from-layer="1636" from-port="1" to-layer="1638" to-port="1"/>
		<edge from-layer="1637" from-port="1" to-layer="1638" to-port="2"/>
		<edge from-layer="1635" from-port="3" to-layer="1639" to-port="0"/>
		<edge from-layer="1638" from-port="3" to-layer="1639" to-port="1"/>
		<edge from-layer="1639" from-port="2" to-layer="1640" to-port="0"/>
		<edge from-layer="1640" from-port="1" to-layer="1642" to-port="0"/>
		<edge from-layer="1641" from-port="1" to-layer="1642" to-port="1"/>
		<edge from-layer="1565" from-port="3" to-layer="1645" to-port="0"/>
		<edge from-layer="1643" from-port="1" to-layer="1645" to-port="1"/>
		<edge from-layer="1644" from-port="1" to-layer="1645" to-port="2"/>
		<edge from-layer="1615" from-port="3" to-layer="1648" to-port="0"/>
		<edge from-layer="1646" from-port="1" to-layer="1648" to-port="1"/>
		<edge from-layer="1647" from-port="1" to-layer="1648" to-port="2"/>
		<edge from-layer="1645" from-port="3" to-layer="1649" to-port="0"/>
		<edge from-layer="1648" from-port="3" to-layer="1649" to-port="1"/>
		<edge from-layer="1649" from-port="2" to-layer="1650" to-port="0"/>
		<edge from-layer="1650" from-port="1" to-layer="1652" to-port="0"/>
		<edge from-layer="1651" from-port="1" to-layer="1652" to-port="1"/>
		<edge from-layer="1622" from-port="2" to-layer="1653" to-port="0"/>
		<edge from-layer="1632" from-port="2" to-layer="1653" to-port="1"/>
		<edge from-layer="1642" from-port="2" to-layer="1653" to-port="2"/>
		<edge from-layer="1652" from-port="2" to-layer="1653" to-port="3"/>
		<edge from-layer="1281" from-port="3" to-layer="1655" to-port="0"/>
		<edge from-layer="1655" from-port="1" to-layer="1656" to-port="0"/>
		<edge from-layer="1654" from-port="1" to-layer="1658" to-port="0"/>
		<edge from-layer="1656" from-port="1" to-layer="1658" to-port="1"/>
		<edge from-layer="1657" from-port="1" to-layer="1658" to-port="2"/>
		<edge from-layer="1658" from-port="3" to-layer="1661" to-port="0"/>
		<edge from-layer="1659" from-port="1" to-layer="1661" to-port="1"/>
		<edge from-layer="1660" from-port="1" to-layer="1661" to-port="2"/>
		<edge from-layer="1194" from-port="2" to-layer="1663" to-port="0"/>
		<edge from-layer="1662" from-port="1" to-layer="1663" to-port="1"/>
		<edge from-layer="1663" from-port="2" to-layer="1664" to-port="0"/>
		<edge from-layer="1664" from-port="1" to-layer="1666" to-port="0"/>
		<edge from-layer="1665" from-port="1" to-layer="1666" to-port="1"/>
		<edge from-layer="1666" from-port="2" to-layer="1668" to-port="0"/>
		<edge from-layer="1667" from-port="1" to-layer="1668" to-port="1"/>
		<edge from-layer="1668" from-port="2" to-layer="1669" to-port="0"/>
		<edge from-layer="1669" from-port="1" to-layer="1671" to-port="0"/>
		<edge from-layer="1670" from-port="1" to-layer="1671" to-port="1"/>
		<edge from-layer="1671" from-port="2" to-layer="1672" to-port="0"/>
		<edge from-layer="1672" from-port="1" to-layer="1674" to-port="0"/>
		<edge from-layer="1673" from-port="1" to-layer="1674" to-port="1"/>
		<edge from-layer="1674" from-port="2" to-layer="1676" to-port="0"/>
		<edge from-layer="1675" from-port="1" to-layer="1676" to-port="1"/>
		<edge from-layer="1676" from-port="2" to-layer="1677" to-port="0"/>
		<edge from-layer="1677" from-port="1" to-layer="1679" to-port="0"/>
		<edge from-layer="1678" from-port="1" to-layer="1679" to-port="1"/>
		<edge from-layer="1679" from-port="2" to-layer="1680" to-port="0"/>
		<edge from-layer="1680" from-port="1" to-layer="1682" to-port="0"/>
		<edge from-layer="1681" from-port="1" to-layer="1682" to-port="1"/>
		<edge from-layer="1682" from-port="2" to-layer="1684" to-port="0"/>
		<edge from-layer="1683" from-port="1" to-layer="1684" to-port="1"/>
		<edge from-layer="1684" from-port="2" to-layer="1685" to-port="0"/>
		<edge from-layer="1685" from-port="1" to-layer="1687" to-port="0"/>
		<edge from-layer="1686" from-port="1" to-layer="1687" to-port="1"/>
		<edge from-layer="1687" from-port="2" to-layer="1688" to-port="0"/>
		<edge from-layer="1688" from-port="1" to-layer="1690" to-port="0"/>
		<edge from-layer="1689" from-port="1" to-layer="1690" to-port="1"/>
		<edge from-layer="1690" from-port="2" to-layer="1692" to-port="0"/>
		<edge from-layer="1691" from-port="1" to-layer="1692" to-port="1"/>
		<edge from-layer="1692" from-port="2" to-layer="1693" to-port="0"/>
		<edge from-layer="1693" from-port="1" to-layer="1695" to-port="0"/>
		<edge from-layer="1694" from-port="1" to-layer="1695" to-port="1"/>
		<edge from-layer="1695" from-port="2" to-layer="1697" to-port="0"/>
		<edge from-layer="1696" from-port="1" to-layer="1697" to-port="1"/>
		<edge from-layer="1697" from-port="2" to-layer="1698" to-port="0"/>
		<edge from-layer="1698" from-port="1" to-layer="1701" to-port="0"/>
		<edge from-layer="1699" from-port="1" to-layer="1701" to-port="1"/>
		<edge from-layer="1700" from-port="1" to-layer="1701" to-port="2"/>
		<edge from-layer="1701" from-port="3" to-layer="1703" to-port="0"/>
		<edge from-layer="1702" from-port="1" to-layer="1703" to-port="1"/>
		<edge from-layer="1703" from-port="2" to-layer="1705" to-port="0"/>
		<edge from-layer="1704" from-port="1" to-layer="1705" to-port="1"/>
		<edge from-layer="1655" from-port="1" to-layer="1706" to-port="0"/>
		<edge from-layer="1705" from-port="2" to-layer="1708" to-port="0"/>
		<edge from-layer="1706" from-port="1" to-layer="1708" to-port="1"/>
		<edge from-layer="1707" from-port="1" to-layer="1708" to-port="2"/>
		<edge from-layer="1708" from-port="3" to-layer="1711" to-port="0"/>
		<edge from-layer="1709" from-port="1" to-layer="1711" to-port="1"/>
		<edge from-layer="1710" from-port="1" to-layer="1711" to-port="2"/>
		<edge from-layer="1661" from-port="3" to-layer="1712" to-port="0"/>
		<edge from-layer="1711" from-port="3" to-layer="1712" to-port="1"/>
		<edge from-layer="1712" from-port="2" to-layer="1713" to-port="0"/>
		<edge from-layer="1713" from-port="1" to-layer="1715" to-port="0"/>
		<edge from-layer="1714" from-port="1" to-layer="1715" to-port="1"/>
		<edge from-layer="1658" from-port="3" to-layer="1718" to-port="0"/>
		<edge from-layer="1716" from-port="1" to-layer="1718" to-port="1"/>
		<edge from-layer="1717" from-port="1" to-layer="1718" to-port="2"/>
		<edge from-layer="1708" from-port="3" to-layer="1721" to-port="0"/>
		<edge from-layer="1719" from-port="1" to-layer="1721" to-port="1"/>
		<edge from-layer="1720" from-port="1" to-layer="1721" to-port="2"/>
		<edge from-layer="1718" from-port="3" to-layer="1722" to-port="0"/>
		<edge from-layer="1721" from-port="3" to-layer="1722" to-port="1"/>
		<edge from-layer="1722" from-port="2" to-layer="1723" to-port="0"/>
		<edge from-layer="1723" from-port="1" to-layer="1725" to-port="0"/>
		<edge from-layer="1724" from-port="1" to-layer="1725" to-port="1"/>
		<edge from-layer="1658" from-port="3" to-layer="1728" to-port="0"/>
		<edge from-layer="1726" from-port="1" to-layer="1728" to-port="1"/>
		<edge from-layer="1727" from-port="1" to-layer="1728" to-port="2"/>
		<edge from-layer="1708" from-port="3" to-layer="1731" to-port="0"/>
		<edge from-layer="1729" from-port="1" to-layer="1731" to-port="1"/>
		<edge from-layer="1730" from-port="1" to-layer="1731" to-port="2"/>
		<edge from-layer="1728" from-port="3" to-layer="1732" to-port="0"/>
		<edge from-layer="1731" from-port="3" to-layer="1732" to-port="1"/>
		<edge from-layer="1732" from-port="2" to-layer="1733" to-port="0"/>
		<edge from-layer="1733" from-port="1" to-layer="1735" to-port="0"/>
		<edge from-layer="1734" from-port="1" to-layer="1735" to-port="1"/>
		<edge from-layer="1658" from-port="3" to-layer="1738" to-port="0"/>
		<edge from-layer="1736" from-port="1" to-layer="1738" to-port="1"/>
		<edge from-layer="1737" from-port="1" to-layer="1738" to-port="2"/>
		<edge from-layer="1708" from-port="3" to-layer="1741" to-port="0"/>
		<edge from-layer="1739" from-port="1" to-layer="1741" to-port="1"/>
		<edge from-layer="1740" from-port="1" to-layer="1741" to-port="2"/>
		<edge from-layer="1738" from-port="3" to-layer="1742" to-port="0"/>
		<edge from-layer="1741" from-port="3" to-layer="1742" to-port="1"/>
		<edge from-layer="1742" from-port="2" to-layer="1743" to-port="0"/>
		<edge from-layer="1743" from-port="1" to-layer="1745" to-port="0"/>
		<edge from-layer="1744" from-port="1" to-layer="1745" to-port="1"/>
		<edge from-layer="1715" from-port="2" to-layer="1746" to-port="0"/>
		<edge from-layer="1725" from-port="2" to-layer="1746" to-port="1"/>
		<edge from-layer="1735" from-port="2" to-layer="1746" to-port="2"/>
		<edge from-layer="1745" from-port="2" to-layer="1746" to-port="3"/>
		<edge from-layer="1373" from-port="3" to-layer="1748" to-port="0"/>
		<edge from-layer="1748" from-port="1" to-layer="1749" to-port="0"/>
		<edge from-layer="1747" from-port="1" to-layer="1751" to-port="0"/>
		<edge from-layer="1749" from-port="1" to-layer="1751" to-port="1"/>
		<edge from-layer="1750" from-port="1" to-layer="1751" to-port="2"/>
		<edge from-layer="1751" from-port="3" to-layer="1754" to-port="0"/>
		<edge from-layer="1752" from-port="1" to-layer="1754" to-port="1"/>
		<edge from-layer="1753" from-port="1" to-layer="1754" to-port="2"/>
		<edge from-layer="1286" from-port="2" to-layer="1756" to-port="0"/>
		<edge from-layer="1755" from-port="1" to-layer="1756" to-port="1"/>
		<edge from-layer="1756" from-port="2" to-layer="1757" to-port="0"/>
		<edge from-layer="1757" from-port="1" to-layer="1759" to-port="0"/>
		<edge from-layer="1758" from-port="1" to-layer="1759" to-port="1"/>
		<edge from-layer="1759" from-port="2" to-layer="1761" to-port="0"/>
		<edge from-layer="1760" from-port="1" to-layer="1761" to-port="1"/>
		<edge from-layer="1761" from-port="2" to-layer="1762" to-port="0"/>
		<edge from-layer="1762" from-port="1" to-layer="1764" to-port="0"/>
		<edge from-layer="1763" from-port="1" to-layer="1764" to-port="1"/>
		<edge from-layer="1764" from-port="2" to-layer="1765" to-port="0"/>
		<edge from-layer="1765" from-port="1" to-layer="1767" to-port="0"/>
		<edge from-layer="1766" from-port="1" to-layer="1767" to-port="1"/>
		<edge from-layer="1767" from-port="2" to-layer="1769" to-port="0"/>
		<edge from-layer="1768" from-port="1" to-layer="1769" to-port="1"/>
		<edge from-layer="1769" from-port="2" to-layer="1770" to-port="0"/>
		<edge from-layer="1770" from-port="1" to-layer="1772" to-port="0"/>
		<edge from-layer="1771" from-port="1" to-layer="1772" to-port="1"/>
		<edge from-layer="1772" from-port="2" to-layer="1773" to-port="0"/>
		<edge from-layer="1773" from-port="1" to-layer="1775" to-port="0"/>
		<edge from-layer="1774" from-port="1" to-layer="1775" to-port="1"/>
		<edge from-layer="1775" from-port="2" to-layer="1777" to-port="0"/>
		<edge from-layer="1776" from-port="1" to-layer="1777" to-port="1"/>
		<edge from-layer="1777" from-port="2" to-layer="1778" to-port="0"/>
		<edge from-layer="1778" from-port="1" to-layer="1780" to-port="0"/>
		<edge from-layer="1779" from-port="1" to-layer="1780" to-port="1"/>
		<edge from-layer="1780" from-port="2" to-layer="1781" to-port="0"/>
		<edge from-layer="1781" from-port="1" to-layer="1783" to-port="0"/>
		<edge from-layer="1782" from-port="1" to-layer="1783" to-port="1"/>
		<edge from-layer="1783" from-port="2" to-layer="1785" to-port="0"/>
		<edge from-layer="1784" from-port="1" to-layer="1785" to-port="1"/>
		<edge from-layer="1785" from-port="2" to-layer="1786" to-port="0"/>
		<edge from-layer="1786" from-port="1" to-layer="1788" to-port="0"/>
		<edge from-layer="1787" from-port="1" to-layer="1788" to-port="1"/>
		<edge from-layer="1788" from-port="2" to-layer="1790" to-port="0"/>
		<edge from-layer="1789" from-port="1" to-layer="1790" to-port="1"/>
		<edge from-layer="1790" from-port="2" to-layer="1791" to-port="0"/>
		<edge from-layer="1791" from-port="1" to-layer="1794" to-port="0"/>
		<edge from-layer="1792" from-port="1" to-layer="1794" to-port="1"/>
		<edge from-layer="1793" from-port="1" to-layer="1794" to-port="2"/>
		<edge from-layer="1794" from-port="3" to-layer="1796" to-port="0"/>
		<edge from-layer="1795" from-port="1" to-layer="1796" to-port="1"/>
		<edge from-layer="1796" from-port="2" to-layer="1798" to-port="0"/>
		<edge from-layer="1797" from-port="1" to-layer="1798" to-port="1"/>
		<edge from-layer="1748" from-port="1" to-layer="1799" to-port="0"/>
		<edge from-layer="1798" from-port="2" to-layer="1801" to-port="0"/>
		<edge from-layer="1799" from-port="1" to-layer="1801" to-port="1"/>
		<edge from-layer="1800" from-port="1" to-layer="1801" to-port="2"/>
		<edge from-layer="1801" from-port="3" to-layer="1804" to-port="0"/>
		<edge from-layer="1802" from-port="1" to-layer="1804" to-port="1"/>
		<edge from-layer="1803" from-port="1" to-layer="1804" to-port="2"/>
		<edge from-layer="1754" from-port="3" to-layer="1805" to-port="0"/>
		<edge from-layer="1804" from-port="3" to-layer="1805" to-port="1"/>
		<edge from-layer="1805" from-port="2" to-layer="1806" to-port="0"/>
		<edge from-layer="1806" from-port="1" to-layer="1808" to-port="0"/>
		<edge from-layer="1807" from-port="1" to-layer="1808" to-port="1"/>
		<edge from-layer="1751" from-port="3" to-layer="1811" to-port="0"/>
		<edge from-layer="1809" from-port="1" to-layer="1811" to-port="1"/>
		<edge from-layer="1810" from-port="1" to-layer="1811" to-port="2"/>
		<edge from-layer="1801" from-port="3" to-layer="1814" to-port="0"/>
		<edge from-layer="1812" from-port="1" to-layer="1814" to-port="1"/>
		<edge from-layer="1813" from-port="1" to-layer="1814" to-port="2"/>
		<edge from-layer="1811" from-port="3" to-layer="1815" to-port="0"/>
		<edge from-layer="1814" from-port="3" to-layer="1815" to-port="1"/>
		<edge from-layer="1815" from-port="2" to-layer="1816" to-port="0"/>
		<edge from-layer="1816" from-port="1" to-layer="1818" to-port="0"/>
		<edge from-layer="1817" from-port="1" to-layer="1818" to-port="1"/>
		<edge from-layer="1751" from-port="3" to-layer="1821" to-port="0"/>
		<edge from-layer="1819" from-port="1" to-layer="1821" to-port="1"/>
		<edge from-layer="1820" from-port="1" to-layer="1821" to-port="2"/>
		<edge from-layer="1801" from-port="3" to-layer="1824" to-port="0"/>
		<edge from-layer="1822" from-port="1" to-layer="1824" to-port="1"/>
		<edge from-layer="1823" from-port="1" to-layer="1824" to-port="2"/>
		<edge from-layer="1821" from-port="3" to-layer="1825" to-port="0"/>
		<edge from-layer="1824" from-port="3" to-layer="1825" to-port="1"/>
		<edge from-layer="1825" from-port="2" to-layer="1826" to-port="0"/>
		<edge from-layer="1826" from-port="1" to-layer="1828" to-port="0"/>
		<edge from-layer="1827" from-port="1" to-layer="1828" to-port="1"/>
		<edge from-layer="1751" from-port="3" to-layer="1831" to-port="0"/>
		<edge from-layer="1829" from-port="1" to-layer="1831" to-port="1"/>
		<edge from-layer="1830" from-port="1" to-layer="1831" to-port="2"/>
		<edge from-layer="1801" from-port="3" to-layer="1834" to-port="0"/>
		<edge from-layer="1832" from-port="1" to-layer="1834" to-port="1"/>
		<edge from-layer="1833" from-port="1" to-layer="1834" to-port="2"/>
		<edge from-layer="1831" from-port="3" to-layer="1835" to-port="0"/>
		<edge from-layer="1834" from-port="3" to-layer="1835" to-port="1"/>
		<edge from-layer="1835" from-port="2" to-layer="1836" to-port="0"/>
		<edge from-layer="1836" from-port="1" to-layer="1838" to-port="0"/>
		<edge from-layer="1837" from-port="1" to-layer="1838" to-port="1"/>
		<edge from-layer="1808" from-port="2" to-layer="1839" to-port="0"/>
		<edge from-layer="1818" from-port="2" to-layer="1839" to-port="1"/>
		<edge from-layer="1828" from-port="2" to-layer="1839" to-port="2"/>
		<edge from-layer="1838" from-port="2" to-layer="1839" to-port="3"/>
		<edge from-layer="1466" from-port="3" to-layer="1841" to-port="0"/>
		<edge from-layer="1841" from-port="1" to-layer="1842" to-port="0"/>
		<edge from-layer="1840" from-port="1" to-layer="1844" to-port="0"/>
		<edge from-layer="1842" from-port="1" to-layer="1844" to-port="1"/>
		<edge from-layer="1843" from-port="1" to-layer="1844" to-port="2"/>
		<edge from-layer="1844" from-port="3" to-layer="1847" to-port="0"/>
		<edge from-layer="1845" from-port="1" to-layer="1847" to-port="1"/>
		<edge from-layer="1846" from-port="1" to-layer="1847" to-port="2"/>
		<edge from-layer="1379" from-port="2" to-layer="1849" to-port="0"/>
		<edge from-layer="1848" from-port="1" to-layer="1849" to-port="1"/>
		<edge from-layer="1849" from-port="2" to-layer="1850" to-port="0"/>
		<edge from-layer="1850" from-port="1" to-layer="1852" to-port="0"/>
		<edge from-layer="1851" from-port="1" to-layer="1852" to-port="1"/>
		<edge from-layer="1852" from-port="2" to-layer="1854" to-port="0"/>
		<edge from-layer="1853" from-port="1" to-layer="1854" to-port="1"/>
		<edge from-layer="1854" from-port="2" to-layer="1855" to-port="0"/>
		<edge from-layer="1855" from-port="1" to-layer="1857" to-port="0"/>
		<edge from-layer="1856" from-port="1" to-layer="1857" to-port="1"/>
		<edge from-layer="1857" from-port="2" to-layer="1858" to-port="0"/>
		<edge from-layer="1858" from-port="1" to-layer="1860" to-port="0"/>
		<edge from-layer="1859" from-port="1" to-layer="1860" to-port="1"/>
		<edge from-layer="1860" from-port="2" to-layer="1862" to-port="0"/>
		<edge from-layer="1861" from-port="1" to-layer="1862" to-port="1"/>
		<edge from-layer="1862" from-port="2" to-layer="1863" to-port="0"/>
		<edge from-layer="1863" from-port="1" to-layer="1865" to-port="0"/>
		<edge from-layer="1864" from-port="1" to-layer="1865" to-port="1"/>
		<edge from-layer="1865" from-port="2" to-layer="1866" to-port="0"/>
		<edge from-layer="1866" from-port="1" to-layer="1868" to-port="0"/>
		<edge from-layer="1867" from-port="1" to-layer="1868" to-port="1"/>
		<edge from-layer="1868" from-port="2" to-layer="1870" to-port="0"/>
		<edge from-layer="1869" from-port="1" to-layer="1870" to-port="1"/>
		<edge from-layer="1870" from-port="2" to-layer="1871" to-port="0"/>
		<edge from-layer="1871" from-port="1" to-layer="1873" to-port="0"/>
		<edge from-layer="1872" from-port="1" to-layer="1873" to-port="1"/>
		<edge from-layer="1873" from-port="2" to-layer="1874" to-port="0"/>
		<edge from-layer="1874" from-port="1" to-layer="1876" to-port="0"/>
		<edge from-layer="1875" from-port="1" to-layer="1876" to-port="1"/>
		<edge from-layer="1876" from-port="2" to-layer="1878" to-port="0"/>
		<edge from-layer="1877" from-port="1" to-layer="1878" to-port="1"/>
		<edge from-layer="1878" from-port="2" to-layer="1879" to-port="0"/>
		<edge from-layer="1879" from-port="1" to-layer="1881" to-port="0"/>
		<edge from-layer="1880" from-port="1" to-layer="1881" to-port="1"/>
		<edge from-layer="1881" from-port="2" to-layer="1883" to-port="0"/>
		<edge from-layer="1882" from-port="1" to-layer="1883" to-port="1"/>
		<edge from-layer="1883" from-port="2" to-layer="1884" to-port="0"/>
		<edge from-layer="1884" from-port="1" to-layer="1887" to-port="0"/>
		<edge from-layer="1885" from-port="1" to-layer="1887" to-port="1"/>
		<edge from-layer="1886" from-port="1" to-layer="1887" to-port="2"/>
		<edge from-layer="1887" from-port="3" to-layer="1889" to-port="0"/>
		<edge from-layer="1888" from-port="1" to-layer="1889" to-port="1"/>
		<edge from-layer="1889" from-port="2" to-layer="1891" to-port="0"/>
		<edge from-layer="1890" from-port="1" to-layer="1891" to-port="1"/>
		<edge from-layer="1841" from-port="1" to-layer="1892" to-port="0"/>
		<edge from-layer="1891" from-port="2" to-layer="1894" to-port="0"/>
		<edge from-layer="1892" from-port="1" to-layer="1894" to-port="1"/>
		<edge from-layer="1893" from-port="1" to-layer="1894" to-port="2"/>
		<edge from-layer="1894" from-port="3" to-layer="1897" to-port="0"/>
		<edge from-layer="1895" from-port="1" to-layer="1897" to-port="1"/>
		<edge from-layer="1896" from-port="1" to-layer="1897" to-port="2"/>
		<edge from-layer="1847" from-port="3" to-layer="1898" to-port="0"/>
		<edge from-layer="1897" from-port="3" to-layer="1898" to-port="1"/>
		<edge from-layer="1898" from-port="2" to-layer="1899" to-port="0"/>
		<edge from-layer="1899" from-port="1" to-layer="1901" to-port="0"/>
		<edge from-layer="1900" from-port="1" to-layer="1901" to-port="1"/>
		<edge from-layer="1844" from-port="3" to-layer="1904" to-port="0"/>
		<edge from-layer="1902" from-port="1" to-layer="1904" to-port="1"/>
		<edge from-layer="1903" from-port="1" to-layer="1904" to-port="2"/>
		<edge from-layer="1894" from-port="3" to-layer="1907" to-port="0"/>
		<edge from-layer="1905" from-port="1" to-layer="1907" to-port="1"/>
		<edge from-layer="1906" from-port="1" to-layer="1907" to-port="2"/>
		<edge from-layer="1904" from-port="3" to-layer="1908" to-port="0"/>
		<edge from-layer="1907" from-port="3" to-layer="1908" to-port="1"/>
		<edge from-layer="1908" from-port="2" to-layer="1909" to-port="0"/>
		<edge from-layer="1909" from-port="1" to-layer="1911" to-port="0"/>
		<edge from-layer="1910" from-port="1" to-layer="1911" to-port="1"/>
		<edge from-layer="1844" from-port="3" to-layer="1914" to-port="0"/>
		<edge from-layer="1912" from-port="1" to-layer="1914" to-port="1"/>
		<edge from-layer="1913" from-port="1" to-layer="1914" to-port="2"/>
		<edge from-layer="1894" from-port="3" to-layer="1917" to-port="0"/>
		<edge from-layer="1915" from-port="1" to-layer="1917" to-port="1"/>
		<edge from-layer="1916" from-port="1" to-layer="1917" to-port="2"/>
		<edge from-layer="1914" from-port="3" to-layer="1918" to-port="0"/>
		<edge from-layer="1917" from-port="3" to-layer="1918" to-port="1"/>
		<edge from-layer="1918" from-port="2" to-layer="1919" to-port="0"/>
		<edge from-layer="1919" from-port="1" to-layer="1921" to-port="0"/>
		<edge from-layer="1920" from-port="1" to-layer="1921" to-port="1"/>
		<edge from-layer="1844" from-port="3" to-layer="1924" to-port="0"/>
		<edge from-layer="1922" from-port="1" to-layer="1924" to-port="1"/>
		<edge from-layer="1923" from-port="1" to-layer="1924" to-port="2"/>
		<edge from-layer="1894" from-port="3" to-layer="1927" to-port="0"/>
		<edge from-layer="1925" from-port="1" to-layer="1927" to-port="1"/>
		<edge from-layer="1926" from-port="1" to-layer="1927" to-port="2"/>
		<edge from-layer="1924" from-port="3" to-layer="1928" to-port="0"/>
		<edge from-layer="1927" from-port="3" to-layer="1928" to-port="1"/>
		<edge from-layer="1928" from-port="2" to-layer="1929" to-port="0"/>
		<edge from-layer="1929" from-port="1" to-layer="1931" to-port="0"/>
		<edge from-layer="1930" from-port="1" to-layer="1931" to-port="1"/>
		<edge from-layer="1901" from-port="2" to-layer="1932" to-port="0"/>
		<edge from-layer="1911" from-port="2" to-layer="1932" to-port="1"/>
		<edge from-layer="1921" from-port="2" to-layer="1932" to-port="2"/>
		<edge from-layer="1931" from-port="2" to-layer="1932" to-port="3"/>
		<edge from-layer="1560" from-port="4" to-layer="1933" to-port="0"/>
		<edge from-layer="1653" from-port="4" to-layer="1933" to-port="1"/>
		<edge from-layer="1746" from-port="4" to-layer="1933" to-port="2"/>
		<edge from-layer="1839" from-port="4" to-layer="1933" to-port="3"/>
		<edge from-layer="1932" from-port="4" to-layer="1933" to-port="4"/>
		<edge from-layer="1933" from-port="5" to-layer="1935" to-port="0"/>
		<edge from-layer="1934" from-port="1" to-layer="1935" to-port="1"/>
		<edge from-layer="1935" from-port="2" to-layer="1937" to-port="0"/>
		<edge from-layer="1936" from-port="1" to-layer="1937" to-port="1"/>
		<edge from-layer="1469" from-port="1" to-layer="1938" to-port="0"/>
		<edge from-layer="1054" from-port="1" to-layer="1940" to-port="0"/>
		<edge from-layer="1938" from-port="1" to-layer="1940" to-port="1"/>
		<edge from-layer="1939" from-port="1" to-layer="1940" to-port="2"/>
		<edge from-layer="1562" from-port="1" to-layer="1941" to-port="0"/>
		<edge from-layer="1146" from-port="1" to-layer="1943" to-port="0"/>
		<edge from-layer="1941" from-port="1" to-layer="1943" to-port="1"/>
		<edge from-layer="1942" from-port="1" to-layer="1943" to-port="2"/>
		<edge from-layer="1655" from-port="1" to-layer="1944" to-port="0"/>
		<edge from-layer="1238" from-port="1" to-layer="1946" to-port="0"/>
		<edge from-layer="1944" from-port="1" to-layer="1946" to-port="1"/>
		<edge from-layer="1945" from-port="1" to-layer="1946" to-port="2"/>
		<edge from-layer="1748" from-port="1" to-layer="1947" to-port="0"/>
		<edge from-layer="1330" from-port="1" to-layer="1949" to-port="0"/>
		<edge from-layer="1947" from-port="1" to-layer="1949" to-port="1"/>
		<edge from-layer="1948" from-port="1" to-layer="1949" to-port="2"/>
		<edge from-layer="1841" from-port="1" to-layer="1950" to-port="0"/>
		<edge from-layer="1423" from-port="1" to-layer="1952" to-port="0"/>
		<edge from-layer="1950" from-port="1" to-layer="1952" to-port="1"/>
		<edge from-layer="1951" from-port="1" to-layer="1952" to-port="2"/>
		<edge from-layer="1940" from-port="3" to-layer="1953" to-port="0"/>
		<edge from-layer="1943" from-port="3" to-layer="1953" to-port="1"/>
		<edge from-layer="1946" from-port="3" to-layer="1953" to-port="2"/>
		<edge from-layer="1949" from-port="3" to-layer="1953" to-port="3"/>
		<edge from-layer="1952" from-port="3" to-layer="1953" to-port="4"/>
		<edge from-layer="1469" from-port="1" to-layer="1954" to-port="0"/>
		<edge from-layer="1066" from-port="1" to-layer="1956" to-port="0"/>
		<edge from-layer="1954" from-port="1" to-layer="1956" to-port="1"/>
		<edge from-layer="1955" from-port="1" to-layer="1956" to-port="2"/>
		<edge from-layer="1562" from-port="1" to-layer="1957" to-port="0"/>
		<edge from-layer="1158" from-port="1" to-layer="1959" to-port="0"/>
		<edge from-layer="1957" from-port="1" to-layer="1959" to-port="1"/>
		<edge from-layer="1958" from-port="1" to-layer="1959" to-port="2"/>
		<edge from-layer="1655" from-port="1" to-layer="1960" to-port="0"/>
		<edge from-layer="1250" from-port="1" to-layer="1962" to-port="0"/>
		<edge from-layer="1960" from-port="1" to-layer="1962" to-port="1"/>
		<edge from-layer="1961" from-port="1" to-layer="1962" to-port="2"/>
		<edge from-layer="1748" from-port="1" to-layer="1963" to-port="0"/>
		<edge from-layer="1342" from-port="1" to-layer="1965" to-port="0"/>
		<edge from-layer="1963" from-port="1" to-layer="1965" to-port="1"/>
		<edge from-layer="1964" from-port="1" to-layer="1965" to-port="2"/>
		<edge from-layer="1841" from-port="1" to-layer="1966" to-port="0"/>
		<edge from-layer="1435" from-port="1" to-layer="1968" to-port="0"/>
		<edge from-layer="1966" from-port="1" to-layer="1968" to-port="1"/>
		<edge from-layer="1967" from-port="1" to-layer="1968" to-port="2"/>
		<edge from-layer="1956" from-port="3" to-layer="1969" to-port="0"/>
		<edge from-layer="1959" from-port="3" to-layer="1969" to-port="1"/>
		<edge from-layer="1962" from-port="3" to-layer="1969" to-port="2"/>
		<edge from-layer="1965" from-port="3" to-layer="1969" to-port="3"/>
		<edge from-layer="1968" from-port="3" to-layer="1969" to-port="4"/>
		<edge from-layer="1969" from-port="5" to-layer="1970" to-port="0"/>
		<edge from-layer="1970" from-port="1" to-layer="1973" to-port="0"/>
		<edge from-layer="1971" from-port="1" to-layer="1973" to-port="1"/>
		<edge from-layer="1972" from-port="1" to-layer="1973" to-port="2"/>
		<edge from-layer="1973" from-port="3" to-layer="1975" to-port="0"/>
		<edge from-layer="1974" from-port="1" to-layer="1975" to-port="1"/>
		<edge from-layer="1975" from-port="2" to-layer="1977" to-port="0"/>
		<edge from-layer="1976" from-port="1" to-layer="1977" to-port="1"/>
		<edge from-layer="1969" from-port="5" to-layer="1978" to-port="0"/>
		<edge from-layer="1977" from-port="2" to-layer="1978" to-port="1"/>
		<edge from-layer="1953" from-port="5" to-layer="1979" to-port="0"/>
		<edge from-layer="1978" from-port="2" to-layer="1980" to-port="0"/>
		<edge from-layer="1979" from-port="1" to-layer="1980" to-port="1"/>
		<edge from-layer="1953" from-port="5" to-layer="1981" to-port="0"/>
		<edge from-layer="1980" from-port="2" to-layer="1981" to-port="1"/>
		<edge from-layer="1981" from-port="2" to-layer="1983" to-port="0"/>
		<edge from-layer="1982" from-port="1" to-layer="1983" to-port="1"/>
		<edge from-layer="1983" from-port="2" to-layer="1985" to-port="0"/>
		<edge from-layer="1984" from-port="1" to-layer="1985" to-port="1"/>
		<edge from-layer="1937" from-port="2" to-layer="1989" to-port="0"/>
		<edge from-layer="1985" from-port="2" to-layer="1989" to-port="1"/>
		<edge from-layer="1986" from-port="1" to-layer="1989" to-port="2"/>
		<edge from-layer="1987" from-port="1" to-layer="1989" to-port="3"/>
		<edge from-layer="1988" from-port="1" to-layer="1989" to-port="4"/>
		<edge from-layer="1989" from-port="5" to-layer="1992" to-port="0"/>
		<edge from-layer="1990" from-port="1" to-layer="1992" to-port="1"/>
		<edge from-layer="1991" from-port="1" to-layer="1992" to-port="2"/>
		<edge from-layer="1992" from-port="4" to-layer="1993" to-port="0"/>
		<edge from-layer="1937" from-port="2" to-layer="1995" to-port="0"/>
		<edge from-layer="1994" from-port="1" to-layer="1995" to-port="1"/>
		<edge from-layer="1937" from-port="2" to-layer="1996" to-port="0"/>
		<edge from-layer="1996" from-port="1" to-layer="2000" to-port="0"/>
		<edge from-layer="1997" from-port="1" to-layer="2000" to-port="1"/>
		<edge from-layer="1998" from-port="1" to-layer="2000" to-port="2"/>
		<edge from-layer="1999" from-port="1" to-layer="2000" to-port="3"/>
		<edge from-layer="2000" from-port="4" to-layer="2002" to-port="0"/>
		<edge from-layer="2001" from-port="1" to-layer="2002" to-port="1"/>
		<edge from-layer="1992" from-port="3" to-layer="2003" to-port="0"/>
		<edge from-layer="2002" from-port="2" to-layer="2003" to-port="1"/>
		<edge from-layer="2003" from-port="2" to-layer="2004" to-port="0"/>
		<edge from-layer="1992" from-port="5" to-layer="2004" to-port="1"/>
		<edge from-layer="2004" from-port="2" to-layer="2005" to-port="0"/>
		<edge from-layer="1995" from-port="2" to-layer="2007" to-port="0"/>
		<edge from-layer="2005" from-port="1" to-layer="2007" to-port="1"/>
		<edge from-layer="2006" from-port="1" to-layer="2007" to-port="2"/>
		<edge from-layer="2007" from-port="3" to-layer="2009" to-port="0"/>
		<edge from-layer="2008" from-port="1" to-layer="2009" to-port="1"/>
		<edge from-layer="1985" from-port="2" to-layer="2011" to-port="0"/>
		<edge from-layer="2010" from-port="1" to-layer="2011" to-port="1"/>
		<edge from-layer="2004" from-port="2" to-layer="2012" to-port="0"/>
		<edge from-layer="2011" from-port="2" to-layer="2014" to-port="0"/>
		<edge from-layer="2012" from-port="1" to-layer="2014" to-port="1"/>
		<edge from-layer="2013" from-port="1" to-layer="2014" to-port="2"/>
		<edge from-layer="2014" from-port="3" to-layer="2016" to-port="0"/>
		<edge from-layer="2015" from-port="1" to-layer="2016" to-port="1"/>
		<edge from-layer="1992" from-port="3" to-layer="2017" to-port="0"/>
		<edge from-layer="2017" from-port="1" to-layer="2019" to-port="0"/>
		<edge from-layer="2018" from-port="1" to-layer="2019" to-port="1"/>
		<edge from-layer="2009" from-port="2" to-layer="2020" to-port="0"/>
		<edge from-layer="2016" from-port="2" to-layer="2020" to-port="1"/>
		<edge from-layer="2019" from-port="2" to-layer="2020" to-port="2"/>
		<edge from-layer="2020" from-port="3" to-layer="2023" to-port="0"/>
		<edge from-layer="2021" from-port="1" to-layer="2023" to-port="1"/>
		<edge from-layer="2022" from-port="1" to-layer="2023" to-port="2"/>
		<edge from-layer="2023" from-port="3" to-layer="2025" to-port="0"/>
		<edge from-layer="2024" from-port="1" to-layer="2025" to-port="1"/>
		<edge from-layer="2025" from-port="2" to-layer="2027" to-port="0"/>
		<edge from-layer="2027" from-port="1" to-layer="2030" to-port="0"/>
		<edge from-layer="2028" from-port="1" to-layer="2030" to-port="1"/>
		<edge from-layer="2029" from-port="1" to-layer="2030" to-port="2"/>
		<edge from-layer="2030" from-port="3" to-layer="2032" to-port="0"/>
		<edge from-layer="2031" from-port="1" to-layer="2032" to-port="1"/>
		<edge from-layer="2026" from-port="1" to-layer="2033" to-port="0"/>
		<edge from-layer="2032" from-port="2" to-layer="2033" to-port="1"/>
		<edge from-layer="2033" from-port="2" to-layer="2034" to-port="0"/>
		<edge from-layer="2034" from-port="1" to-layer="2036" to-port="0"/>
		<edge from-layer="2036" from-port="1" to-layer="2037" to-port="0"/>
		<edge from-layer="2037" from-port="1" to-layer="2039" to-port="0"/>
		<edge from-layer="2038" from-port="1" to-layer="2039" to-port="1"/>
		<edge from-layer="2035" from-port="1" to-layer="2041" to-port="0"/>
		<edge from-layer="2039" from-port="2" to-layer="2041" to-port="1"/>
		<edge from-layer="2040" from-port="1" to-layer="2041" to-port="2"/>
		<edge from-layer="2034" from-port="1" to-layer="2042" to-port="0"/>
		<edge from-layer="2041" from-port="3" to-layer="2042" to-port="1"/>
		<edge from-layer="2042" from-port="2" to-layer="2043" to-port="0"/>
		<edge from-layer="2043" from-port="1" to-layer="2045" to-port="0"/>
		<edge from-layer="2044" from-port="1" to-layer="2045" to-port="1"/>
		<edge from-layer="2045" from-port="2" to-layer="2047" to-port="0"/>
		<edge from-layer="2046" from-port="1" to-layer="2047" to-port="1"/>
		<edge from-layer="2047" from-port="2" to-layer="2049" to-port="0"/>
		<edge from-layer="2048" from-port="1" to-layer="2049" to-port="1"/>
		<edge from-layer="2049" from-port="2" to-layer="2050" to-port="0"/>
		<edge from-layer="2025" from-port="2" to-layer="2051" to-port="0"/>
		<edge from-layer="2050" from-port="1" to-layer="2051" to-port="1"/>
		<edge from-layer="2051" from-port="2" to-layer="2052" to-port="0"/>
		<edge from-layer="2051" from-port="3" to-layer="2053" to-port="0"/>
		<edge from-layer="2053" from-port="1" to-layer="2054" to-port="0"/>
		<edge from-layer="2020" from-port="3" to-layer="2056" to-port="0"/>
		<edge from-layer="2054" from-port="1" to-layer="2056" to-port="1"/>
		<edge from-layer="2055" from-port="1" to-layer="2056" to-port="2"/>
		<edge from-layer="2056" from-port="3" to-layer="2060" to-port="0"/>
		<edge from-layer="2057" from-port="1" to-layer="2060" to-port="1"/>
		<edge from-layer="2058" from-port="1" to-layer="2060" to-port="2"/>
		<edge from-layer="2059" from-port="1" to-layer="2060" to-port="3"/>
		<edge from-layer="2060" from-port="4" to-layer="2061" to-port="0"/>
	</edges>
	<meta_data>
		<MO_version value="2021.2.0-1867-8f507a07f5f-releases/2021/2"/>
		<cli_parameters>
			<caffe_parser_path value="DIR"/>
			<data_type value="FP16"/>
			<disable_nhwc_to_nchw value="False"/>
			<disable_omitting_optional value="False"/>
			<disable_resnet_optimization value="False"/>
			<disable_weights_compression value="False"/>
			<enable_concat_optimization value="False"/>
			<enable_flattening_nested_params value="False"/>
			<enable_ssd_gluoncv value="False"/>
			<extensions value="DIR"/>
			<framework value="onnx"/>
			<freeze_placeholder_with_value value="{}"/>
			<generate_deprecated_IR_V7 value="False"/>
			<input value="image"/>
			<input_model value="DIR/person-detection-asl-0001.onnx"/>
			<input_model_is_text value="False"/>
			<input_shape value="[1,3,320,320]"/>
			<k value="DIR/CustomLayersMapping.xml"/>
			<keep_shape_ops value="True"/>
			<legacy_mxnet_model value="False"/>
			<log_level value="ERROR"/>
			<mean_scale_values value="{'image': {'mean': array([123.675, 116.28 , 103.53 ]), 'scale': array([58.395, 57.12 , 57.375])}}"/>
			<mean_values value="image[123.675,116.28,103.53]"/>
			<model_name value="person-detection-asl-0001"/>
			<output value="['boxes']"/>
			<output_dir value="DIR"/>
			<placeholder_data_types value="{}"/>
			<placeholder_shapes value="{'image': array([  1,   3, 320, 320])}"/>
			<progress value="False"/>
			<remove_memory value="False"/>
			<remove_output_softmax value="False"/>
			<reverse_input_channels value="True"/>
			<save_params_from_nd value="False"/>
			<scale_values value="image[58.395,57.12,57.375]"/>
			<silent value="False"/>
			<static_shape value="False"/>
			<stream_output value="False"/>
			<unset unset_cli_parameters="batch, counts, disable_fusing, disable_gfusing, finegrain_fusing, input_checkpoint, input_meta_graph, input_proto, input_symbol, mean_file, mean_file_offsets, move_to_preprocess, nd_prefix_name, pretrained_model_name, saved_model_dir, saved_model_tags, scale, tensorboard_logdir, tensorflow_custom_layer_libraries, tensorflow_custom_operations_config_update, tensorflow_object_detection_api_pipeline_config, tensorflow_use_custom_operations_config, transformations_config"/>
		</cli_parameters>
	</meta_data>
</net>
